telegbot/xc_bias.npy (npy, 4224 bytes, 1 tensors)

array f8 [512]
000000 38 77 e1 04 e3 dd 9c 3f 84 0b c6 0c 46 87 de bf
       0.028190180943389737 -0.47700644729064146
000010 71 44 fc 68 3e be 97 3f f3 da 2f 5e 27 bf db 3f
       0.023186659963418458 0.43354210088675343
000020 19 21 cc 7d 3a 53 cc 3f 49 05 dc da 0c bf e3 3f
       0.22128993170213887 0.6170715593909019
000030 88 7d c5 ee a5 8d d6 bf ef 14 e4 fc 24 38 d2 3f
       -0.35239551847004025 0.2846767873418931
000040 ad 29 9d 95 7b e1 cc 3f 5b 26 fb 4c 2d 2e dd bf
       0.22563118749014902 -0.455943417717753
000050 2d 7a c1 11 58 4f d0 3f 60 98 5b ea ed 1e bb 3f
       0.25484277471506084 0.10594069453836275
000060 17 15 44 d3 dc bc a3 3f f3 ea 86 b7 7b c8 e1 3f
       0.03855028227739348 0.5557230553161773
000070 db c5 51 30 78 0e d3 bf 71 3e 07 12 0b f3 a0 bf
       -0.29775814741796375 -0.03310427279540996
000080 e2 2d e2 d0 78 cb a8 bf 17 86 a3 b9 bd 83 d7 3f
       -0.04842736768577162 0.3674158394697726
000090 8b 71 0e 2f 6a d8 d9 bf 17 df 06 24 08 0c ca bf
       -0.403833909944091 -0.20349218138812183
0000a0 76 d5 0c e9 d3 90 b8 3f 0d c4 fd 23 e8 66 86 bf
       0.09595989646625988 -0.010938466642729261
0000b0 db 0f 8a 28 ac 26 e3 3f 09 00 0a 46 a4 14 d0 3f
       0.5984707633765497 0.25125986900093317
0000c0 f6 1a 88 27 25 a6 d3 3f de 25 83 51 56 53 d9 bf
       0.3070156942416554 -0.3957114978807946
0000d0 7a 72 d9 0d 32 5d ad 3f 00 27 97 e7 5f e4 af bf
       0.057351650419808345 -0.0622892351344273
0000e0 f6 fe 89 f8 bc 8a da 3f ea 9c fc ad 43 2c e0 3f
       0.4147179057253959 0.5054033659152115
0000f0 0a a3 5a 32 9d 54 d1 bf 28 b0 28 8c 5f d6 c0 bf
       -0.2707894317377827 -0.1315421518678488
000100 66 80 18 3b ad 93 a0 3f 60 1f 3c 20 76 c7 df 3f
       0.03237668367751283 0.49654915950713097
000110 89 ae a4 2b c0 eb d0 bf ce 00 e9 e2 b7 f6 e8 bf
       -0.264389078731917 -0.7801169807280759
000120 8d 34 cd 64 6d ad 92 3f 77 7e 26 ba 02 2f b9 bf
       0.018239697720947624 -0.09837357563673686
000130 85 95 19 27 c2 7b db 3f 21 30 af 27 13 ea ef 3f
       0.4294286138377504 0.9973235869488272
000140 e4 ec ec cb cf 69 b4 3f 07 b1 b5 35 de e7 c3 bf
       0.07973955849313402 -0.15551355001969844
000150 a7 d1 76 49 63 01 e6 3f eb 8e d9 b2 f7 b9 de bf
       0.6876694140287797 -0.48010055986217876
000160 7e 03 e8 92 0c d0 d8 bf cb a5 3a b4 12 34 e4 bf
       -0.3876983103401058 -0.6313565750216922
000170 8c 58 c2 e8 bf a8 9b 3f 1b 8a b6 ca f6 c7 b7 3f
       0.027010916310779495 0.09289495896386095
000180 27 84 2d b8 2e 4b d0 3f f7 3c 92 7b d0 e2 e0 3f
       0.25458877550232945 0.5276873029232821
000190 54 4c a8 c5 de 5f af 3f 1a 71 ac 79 a9 50 ce bf
       0.06127830660639036 -0.23683660927861966
0001a0 84 47 b6 bd 68 f8 d5 3f b0 dc 39 05 23 65 cb 3f
       0.3432866909653216 0.2140239501493162
0001b0 07 a8 72 de 54 00 cd 3f 93 fb c1 c5 f3 c2 af bf
       0.22657261716568675 -0.062034242525434234
0001c0 a5 a8 ff 66 c1 a5 c1 bf aa 29 7f 0a 2f 80 bb bf
       -0.1378709557460002 -0.10742467886226473
0001d0 87 9d 53 e9 86 f2 d7 bf 68 48 f9 79 b3 0f d9 3f
       -0.37417767320445033 0.3915833178663264
0001e0 09 ae 35 cf 53 f5 b5 3f f3 a3 2c f8 e4 d1 ce 3f
       0.08577464875059361 0.2407804691113423
0001f0 b1 40 bb ec e8 02 b7 bf de c7 e9 e5 14 9b a2 3f
       -0.08988815097405013 0.03633942896421137
000200 2b 88 f5 04 85 3c dc bf 2d 25 3a 25 c7 56 ee bf
       -0.4411938236645507 -0.9480930068104151
000210 9d dd b5 b7 88 ac e7 bf e4 0a af cb 7a 5f d8 3f
       -0.7398112857908249 0.3808276166056841
000220 12 01 77 16 f6 57 b6 bf ad 77 53 95 7f 6e e2 bf
       -0.08727968262156008 -0.5759885708355249
000230 9c 04 21 86 b0 ca df bf d2 0f 6c cb 51 7d af bf
       -0.4967461881497657 -0.0615029869859708
000240 5e 0c 35 b0 3f a9 e7 3f 80 ac dc 99 a3 18 98 3f
       0.7394102517649903 0.023531490579597136
000250 6c c8 cb 49 e4 02 d1 bf 1e d5 39 d2 7f 69 b0 bf
       -0.26580149847644097 -0.06410979158848248
000260 23 38 cc 47 c7 67 e9 bf 8e b6 3d 46 f4 52 c5 bf
       -0.7939182665156789 -0.16659406118144598
000270 bb ac bc 72 86 ba d6 bf 4f d0 b2 3a 87 c3 dd 3f
       -0.3551345940092678 0.4650590966441585
000280 2a 43 fc 58 59 cd 9f bf 19 bd df 7d e4 5f ca bf
       -0.031056781822431358 -0.20605140825453175
000290 59 77 28 fb f3 11 d2 bf db 24 1d 22 0e fa d0 bf
       -0.2823457672801531 -0.2652621586936001
0002a0 ba 7e fb e9 f0 e2 e2 3f fd c4 30 e3 3d 93 d4 bf
       0.5902027673691557 -0.321486923089722
0002b0 5f 09 d1 ca bb 02 b9 bf 80 63 92 22 8d 74 e5 bf
       -0.0976979608686057 -0.6704774546843595
0002c0 5a c1 db 59 b2 7f dc bf d9 8a d0 12 b6 b9 c8 3f
       -0.44529398703800427 0.19316745680506278
0002d0 a1 4f d9 e9 ff 4c e1 3f c7 8b d8 11 47 71 bd 3f
       0.5406493728028076 0.11500972924890994
0002e0 47 5a 08 a7 19 8b ad bf 91 56 d4 64 1d 70 b8 bf
       -0.05770187534306053 -0.09546073638588327
0002f0 30 59 43 a0 f4 b2 e3 3f e1 d7 37 6e 6a 81 cc 3f
       0.6155951624048495 0.22269945508713732
000300 63 39 9b 06 82 80 d7 3f f6 c4 68 b9 d7 45 d7 3f
       0.3672185005679209 0.3636378584515819
000310 59 2a 66 8a 63 f8 dc bf bf 3c 24 5c d7 6b da 3f
       -0.452660451083522 0.4128321075267642
000320 56 6b 64 f8 8b c5 e1 bf 80 ed ea 2f 44 ce cc bf
       -0.5553645945941337 -0.22504474963885102
000330 2a 26 ca dd c5 19 b3 3f e9 30 0a 6c 1a 62 e8 bf
       0.07461201348100902 -0.7619754896309391
000340 2f 3a 74 05 50 89 d2 3f b9 05 20 a0 4c dc d4 bf
       0.2896308949720234 -0.3259460033151203
000350 2e 5a 1f b2 b7 e9 bf bf 6e 17 4c 5b 8f ed c5 bf
       -0.12465999697392569 -0.17131225545761758
000360 5f 1c 99 21 7d c5 e2 3f 97 03 67 b1 b1 ff d2 3f
       0.5866075187885932 0.2968563301511095
000370 71 9b b3 b5 f0 72 e4 3f b2 dd 08 b4 fa b0 d3 3f
       0.6390307949885551 0.30767695981509313
000380 cc 43 d4 e0 2e ff dc bf 52 80 53 2e 0a 73 a0 3f
       -0.45307514148686034 0.032127683787394404
000390 57 32 a4 46 bf db ba bf c0 cc 70 d1 18 ff c8 3f
       -0.10491557573932063 0.19528494097321492
0003a0 8a a5 27 55 47 3d e1 3f 4d a9 0b 3f 15 54 c0 3f
       0.5387303031140374 0.1275660093154535
0003b0 83 7e 85 b4 ae 67 c8 3f e7 9b c9 08 9b d7 a4 bf
       0.19066413702511306 -0.04070744020719257
0003c0 0a 14 5f 2c dc f8 a4 bf 6c d5 d8 03 b7 3f b7 bf
       -0.04096115152018605 -0.09081596225663241
0003d0 b5 4e 1e 7a 65 f9 c7 bf 79 5c ba 67 73 21 d1 3f
       -0.1872984739571756 0.26766667489705004
0003e0 9f 31 db e5 dd b7 e1 3f c8 29 08 a5 c6 f9 d6 3f
       0.5536946763400471 0.3589951144828345
0003f0 45 60 bd c5 e8 48 c2 3f e7 f1 6a 9e bd 8b d3 bf
       0.14285001425992241 -0.3054040953682304
000400 d8 49 e8 0e 8c 63 b7 bf 4a f6 5d 9a 1c 25 c8 bf
       -0.09136271823835018 -0.18863256013348667
000410 67 3a a3 14 d2 90 ab bf be 1c 2a 77 f8 85 b6 3f
       -0.053839268702735414 0.08798172864236428
000420 60 0c 01 f5 dc 1b b0 bf f3 66 06 65 78 6e d4 bf
       -0.06292515737099924 -0.3192425715038631
000430 43 1a 7b 5a ba 7b 8e bf 79 ee 2b 64 70 fd dd 3f
       -0.01488442982316685 0.4685936907041888
000440 d6 c3 39 92 21 72 da bf ef fc c4 78 4a 03 e5 bf
       -0.41321601180885403 -0.6566517218379014
000450 13 8f 67 42 f5 97 e6 bf 77 21 9e 8a 7b 48 ef 3f
       -0.7060495659793297 0.977597971666042
000460 e2 15 b8 3f 79 75 d5 3f 9d 88 b4 66 db b6 d1 bf
       0.33529502127234256 -0.27678570775800343
000470 71 53 41 c1 e4 21 e6 bf 7d eb 7b 66 c3 97 e0 3f
       -0.6916373991503929 0.5185257913247906
000480 de 89 17 44 8f 31 ac 3f ce e5 02 f0 6c 95 b4 bf
       0.055065609991078665 -0.08040505275393814
000490 7d cf 46 b6 1c ed d0 bf 03 0e 78 83 bf 3e c0 bf
       -0.2644721775097805 -0.12691492003806112
0004a0 3f ec 0c 5e 2c 0e cd 3f 15 68 b5 6d bb 0d 8f 3f
       0.22699503509815774 0.015162910733739246
0004b0 06 eb ef a3 58 4b e5 bf 93 5a 2a 3d ad bc c5 3f
       -0.6654475404642148 0.16982045637697193
0004c0 22 4e 41 63 47 d9 bc bf a8 25 9e 50 28 3f d8 bf
       -0.11269041226597001 -0.3788548266680558
0004d0 94 a2 c3 ca ce 11 d9 bf d4 cb fa 42 44 fb 70 3f
       -0.39171190072242124 0.004145876547840783
0004e0 00 11 be 58 de ca c6 3f 97 7d 8d 4f da 17 89 3f
       0.17806605656745234 0.01225252681041304
0004f0 64 7c b1 c7 93 f1 b3 3f 6d dd 94 1d 09 99 a3 3f
       0.07790492654156506 0.03827694402792301
000500 ba 04 48 17 10 af db bf 4b ee 6e 52 02 e8 c9 3f
       -0.4325599887234365 0.20239285492958667
000510 e4 b5 79 4e 02 79 d0 3f 3d 4d d7 30 27 f4 d3 3f
       0.2573858038293493 0.3117769219363316
000520 fa f4 01 c1 eb e5 f0 3f 87 f3 4c ae a7 86 83 3f
       1.0561330355988603 0.009534177786571408
000530 24 ef 2e d3 1d 2e b4 3f fd 3e 00 0d 13 5e ba bf
       0.07882868200152565 -0.10299796168714788
000540 1f f3 33 e1 18 01 d9 3f 3c 66 6d 5e 60 3f e1 bf
       0.3906919669387196 -0.5389863819393166
000550 5c 32 95 0f fc df cf 3f 6e 1d f5 d7 58 3d d8 bf
       0.24902296791914835 -0.3787443264922875
000560 9b 87 23 05 5b 89 b8 bf a6 72 ad f4 bb e8 e3 3f
       -0.09584587932070436 0.6221599367959996
000570 cb 22 21 b5 79 32 d2 bf 50 b8 24 d7 64 a5 f0 3f
       -0.28433077515050503 1.0403793720284007
000580 a8 3d 50 21 88 97 c7 bf ef a3 5b 14 bc 1b a6 3f
       -0.18431188227303363 0.04318034885893229
000590 d3 f4 a9 ba 7c 5f cd bf 8f 14 b5 d9 e1 0d d1 3f
       -0.22947653879592753 0.26647230396731286
0005a0 4b c3 4e 99 51 4d c4 bf 92 62 96 55 29 ff a1 bf
       -0.15860958085752438 -0.0351498524643762
0005b0 b6 44 e0 32 b6 95 d1 3f bc be 57 fa b9 60 db 3f
       0.2747626778446589 0.4277787155869921
0005c0 c4 63 e3 01 b9 a6 d1 bf df 89 c3 5c 1d 37 e0 bf
       -0.2758009451331953 -0.5067278682511719
0005d0 56 03 bc 6d d4 b9 d6 3f eb ac 51 55 92 4e 84 bf
       0.3550921508431676 -0.00991548846123754
0005e0 70 cf 8c b7 ed f5 df 3f f1 08 e8 2b f1 b1 94 bf
       0.4993852894287931 -0.020210045151551396
0005f0 d4 52 a7 e7 2e 3b e1 3f 86 08 97 23 aa fd d3 3f
       0.5384745144352459 0.3123574588354433
000600 cf f4 8c b2 50 7b d9 3f 2a 23 75 ca 23 e1 e3 bf
       0.3981515639932924 -0.6212328867196437
000610 3b 6c aa bd 80 02 db bf 07 4a d2 62 99 f1 cf bf
       -0.42202776453058605 -0.2495605213667462
000620 63 70 fb 27 b6 af c9 3f dd ec 46 31 1c 7a da bf
       0.20067479088072834 -0.41370301067554555
000630 64 87 a5 b8 06 b6 a7 3f 78 6a 84 e3 9a d3 ee 3f
       0.04631062511431486 0.9633306926437646
000640 a0 31 8e c5 6e f7 b3 3f e3 2e 71 27 65 8c c0 bf
       0.07799427340632414 -0.1292845194424138
000650 d8 80 8e 30 98 05 a0 bf 8d 55 d7 d7 ce 12 b6 3f
       -0.031292682578397624 0.08622448701438241
000660 83 ae 4d 26 af d4 c6 bf 8d 58 68 d9 b5 6d c8 3f
       -0.17836560602460247 0.19084809413533713
000670 85 4f 4d 7f 11 37 a2 bf 93 ff a4 a5 be dc d0 bf
       -0.035576388158602014 -0.26347318817351456
000680 56 35 f0 4d 4f 7d 9e bf 29 85 93 bc 7a 33 e0 3f
       -0.029774893886544383 0.5062841113214392
000690 1b 41 1c 2c eb 46 cb bf 55 13 02 f7 a7 92 d7 bf
       -0.21310176519228538 -0.3683261787594366
0006a0 90 df ef 69 46 79 d5 3f 4f 00 75 d9 80 94 d7 bf
       0.3355270418683114 -0.3684389232257716
0006b0 ef a8 ad a4 d0 66 ee 3f 97 6f a5 78 ee c3 c1 bf
       0.9500506607412528 -0.1387918557255687
0006c0 39 bc 57 00 48 42 b2 bf 58 50 be b3 72 7c b7 bf
       -0.07132387169234357 -0.09174267662302904
0006d0 fb 15 03 5e c6 54 cf bf a0 91 e5 e4 42 35 d8 bf
       -0.2447746237796052 -0.3782508120841843
0006e0 55 1f 9b c4 35 d8 b0 3f 70 bf 17 b5 37 90 be 3f
       0.06579910325956224 0.11938808604440765
0006f0 14 79 f1 e4 57 a3 ce bf 9a 56 ac 07 dc 4d d9 3f
       -0.23935984305257618 0.3953771662648734
000700 5b cb 0d 7a 8d 5a c0 bf 13 94 06 53 33 e7 d5 bf
       -0.1277634473768455 -0.34223635776499
000710 d6 7e 10 93 c3 6c bf bf cb 30 7e 9f 0c 14 c6 bf
       -0.12275335636558835 -0.17248685634365865
000720 8d 4c f5 6e ff ef d5 bf 0d 72 09 03 ec 80 d6 3f
       -0.34277330241929677 0.35161876961299826
000730 d3 61 1a c3 99 1c d2 bf 7f 51 39 a4 8a 08 83 3f
       -0.2829956441214822 0.009293635498729412
000740 a4 7f 29 13 74 d3 da bf 39 b6 19 21 32 ee c4 3f
       -0.4191560923700257 0.16351915947181953
000750 c7 85 80 81 9f 3d 60 bf 18 5a a0 b6 d4 8a ca 3f
       -0.0019825091694804817 0.20736178319266751
000760 72 32 e4 a5 ca 4b cf bf 92 a5 b4 5d 73 f5 c2 bf
       -0.24450047588506468 -0.1481155593440176
000770 11 03 09 bd 44 65 dc bf 52 25 f8 08 b3 c3 c3 bf
       -0.4436809392973809 -0.15440977037386944
000780 58 66 c2 92 52 fc c5 3f 28 f0 eb 28 66 2e d9 3f
       0.17176277318940225 0.3934569739938092
000790 5a ac 67 b3 2b 8b e4 3f dc 4d 0d a4 d3 4e ea bf
       0.6419886116031066 -0.8221224025859857
0007a0 e8 84 b1 d4 65 45 86 bf 96 c3 94 dd 1e a3 d2 bf
       -0.010874553254498001 -0.29120608938961234
0007b0 f0 12 b0 53 f0 f3 e0 3f 2e c3 bd 28 e9 8c e9 3f
       0.5297776827361229 0.7984510226943706
0007c0 5f a2 8a 0a 85 60 d8 bf 10 d0 ec 9d 57 18 ef 3f
       -0.38089109448859476 0.9717214664910916
0007d0 59 29 5e 62 f7 fb e9 bf 44 d4 29 89 ee 64 a4 bf
       -0.812007610439916 -0.03983254837377406
0007e0 93 0d 51 57 dd 9d d1 bf 5d 39 a5 ac a7 2d cc 3f
       -0.2752602913571646 0.22014327936126224
0007f0 ac 31 be 64 50 77 a6 bf 46 99 b9 b6 fd 98 bf 3f
       -0.04387904386303218 0.12342820845660638
