telegbot/xc_bias.npy (npy, 4224 bytes, 1 tensors)

array f8 [512]
0	0xbfe5580fc0acc1a9	-0.6669996989422106
1	0xbfe73e7b19e7a062	-0.7263770585968923
2	0x3fc4df2fceddbc1f	0.1630611190880424
3	0x3fd49defde2532d9	0.32213970846059464
4	0x3fe6251427022844	0.6920262109645212
5	0x3fe36ad805e84a1c	0.6067924609545261
6	0xbfac784e1866169a	-0.05560535476528834
7	0x3fd1da040ca4ec6f	0.27893162951267575
8	0x3fb0a6abef88deb0	0.06504320714963785
9	0xbfd52134932b37c6	-0.3301516949840074
10	0x3ff06ed8cc4c0dfc	1.0270622234683051
11	0x3fbd988ccee1321b	0.11560897875569547
12	0x3fd64075ccf2a0fb	0.34768433584623865
13	0x3fd7018bc9cb2c7c	0.3594693632737245
14	0xbfd0bf8b67876461	-0.2616909514450239
15	0x3fad634d8dd6f936	0.0573982463497366
16	0x3fd3aafd982cf094	0.3073114381875339
17	0x3fcf2b2143c2b9f2	0.2435037213194416
18	0xbfe3cc76bf03159f	-0.6187089663223339
19	0xbf972715ff6b15d7	-0.02261003848504636
20	0x3fb6f541e3b505c0	0.08967983063941798
21	0xbfe7e6d7e2271b89	-0.7469291131063623
22	0x3fe77d782999c23d	0.7340660870086776
23	0x3fe1939b34fbdf83	0.5492683443871872
24	0xbfdd23d6ac371356	-0.4553124124325242
25	0xbfe9c10493a1b4b6	-0.804811752646535
26	0xbf937640ed1e6066	-0.019005789253782622
27	0x3facf2776fb650ab	0.05653737295793467
28	0x3fb6a0f01c0b284c	0.08839321789415172
29	0x3f8e3b0ed38a0a9d	0.014761081534066018
30	0xbfd044f7c1550c7a	-0.2542094600687005
31	0xbfd6218ea2ad0a81	-0.3457981670982591
32	0x3fb2b6138c2410c2	0.07309076472671719
33	0x3fe1fe4d85a00937	0.5622928247324016
34	0xbfd1165c5a408145	-0.26698979200047673
35	0xbff2cda2d66b14a8	-1.1752041221346108
36	0xbfbf5204e56bafad	-0.12234526253786156
37	0x3fe1085f378e3e85	0.5322719655104754
38	0x3fd6536571775160	0.3488401039187661
39	0x3fed6789ef175f9d	0.918889014220429
40	0x3fbd56d525988476	0.11460621040215976
41	0x3fd5012b25e945a2	0.32819632246272523
42	0x3fda447ad5bd2946	0.4104296767515233
43	0xbfc06818702349ad	-0.12817674136620152
44	0x3fceeb1173f7a003	0.24154871141877274
45	0xbfe0b1779b1d9099	-0.5216634778594368
46	0x3fd3417109e237b4	0.30086923566056645
47	0xbfcf47d2165e9b5a	-0.24437929241431783
48	0x3fd2e2172f7d9f71	0.2950494731689935
49	0x3fe62ad42f373456	0.6927281305485262
50	0xbfc999c8450392dc	-0.20000556344816445
51	0xbfe32ee4290dbda5	-0.5994740297154989
52	0xbfa99fb35383ca1e	-0.050046543068578794
53	0x3f7f48b65a1a472b	0.007637703239781672
54	0x3fd3f661e2de6fa9	0.3119129863277928
55	0x3fda0e61983c3133	0.4071277605696821
56	0xbfdd0911b51fc109	-0.45367853820700127
57	0x3fc02bbd2f58d2c1	0.12633480846274917
58	0xbfadb43cedf710a2	-0.058015731857751676
59	0x3fcfac21fe05e1bd	0.24744057563272107
60	0xbfbf8c34c33f8a50	-0.12323312537004338
61	0x3fde4dd47631907b	0.4735003618463975
62	0xbfae4ff4d3bc9bad	-0.05920376858403329
63	0xbfa1a50b25c3690b	-0.03446230731943175
64	0xbfc624c4d2f30555	-0.1729970960641746
65	0xbfdaaa2db255ef58	-0.41663687148660733
66	0xbfe4b9e9ff37441c	-0.6476945862469878
67	0x3fd6d47af1b31a1b	0.35671876529196006
68	0x3fc82af28da89106	0.18881065289418347
69	0xbfdfc084d2d61eb7	-0.496125417609146
70	0xbfe4334488357a87	-0.6312582645731063
71	0xbfd25b5a9a1f234d	-0.28682580042782463
72	0x3fda26cf690b1abd	0.4086187864126421
73	0xbfc59e2b4fab68cb	-0.16888944044223417
74	0x3fbea1d6a9b6945c	0.11965695994747833
75	0x3fcb198bf15e66fc	0.21171712194045955
76	0xbfcf873bb38ea737	-0.24631449000781355
77	0x3fcac702f53cda46	0.20919835066315978
78	0xbf92a807885067f3	-0.01821910638327746
79	0x3fd79cc876fa5574	0.3689442788975932
80	0xbfd9e2947f2de26f	-0.40445434970710087
81	0xbfd8cd5440b44d20	-0.3875322944524715
82	0xbfbd1e7fa1e22f5a	-0.11374662115320913
83	0xbfee5b1366b794fa	-0.9486176496690455
84	0x3ff0593c58b6d446	1.0217860665700456
85	0xbfe45fe58862f44a	-0.6367061294364558
86	0x3fb3724cdba14d32	0.07596283304274179
87	0xbfe7cda50a31ba04	-0.7438531111818638
88	0xbfe4b574bfb36835	-0.6471503967434332
89	0xbfcb34d791e0cf6e	-0.21255011198956758
90	0x3f95d78afa12c96b	0.021330043328540976
91	0xbfd019474368dd8d	-0.25154286940547693
92	0x3fb6aed5fc490df7	0.08860528382597709
93	0xbfc952f821f9011c	-0.19784452112981732
94	0x3fe2c3ad0e73c23f	0.5863862306851572
95	0xbfb73112ae873fdc	-0.09059254418320911
96	0xbfdaa863283f7386	-0.4165275471730684
97	0xbfb2fa7c58a14c86	-0.0741346088773743
98	0xbfced9c3f2cf4f97	-0.24102067333171526
99	0x3fd1aeecec9d5282	0.27630160433663076
100	0xbfd9a048e8f8d2c0	-0.4004080081097463
101	0x3faca19b2fa100e8	0.0559204574242374
102	0x3fc3a40e73b60c57	0.1534441056247455
103	0xbfe5481a326feb49	-0.6650515542126892
104	0x3fdbaf53094a0bfc	0.43257594973709934
105	0x3fd226b41897407d	0.2836122741837313
106	0xbfd8049f99a0ba8a	-0.37528219225615855
107	0xbfc040bcfc2fce42	-0.126975653780038
108	0x3feb0cf6755de9eb	0.8453323643037128
109	0x3fdb6364255fed82	0.4279413571345786
110	0x3fc3379484d5a3e2	0.15013367162762764
111	0x3fdcf022b19a4e36	0.45215670913714534
112	0xbfe73c0eb1d044d0	-0.7260812256737612
113	0xbfe5d7ac312316a7	-0.6825772247036256
114	0xbfc0752680fba68a	-0.12857514665602238
115	0xbfc5d6dded9c80c0	-0.17061971761814299
116	0x3fd2f3a580353d39	0.2961210014372742
117	0x3fce0984824abfeb	0.23466545450128193
118	0x3fe1a854b96dd678	0.5517982122098166
119	0xbfc7ee2475b684a3	-0.18695502994254296
120	0xbfd07f02adb42d43	-0.257752103455193
121	0xbfe3262bb015c3ec	-0.5984095038567125
122	0xbfc9972b818b1be5	-0.19992584061966948
123	0x3fe59103c8d43223	0.6739519998969324
124	0x3f9eac7c3eda8063	0.029954854332232005
125	0x3fd9bbb996d361cc	0.4020828221232733
126	0x3fd65f897bebc102	0.3495811185994314
127	0xbfe28be6081b2250	-0.579577461082474
128	0xbfcf895b6c65ae61	-0.24637930672485012
129	0xbfec2dd243b023af	-0.8805934259445304
130	0x3f9ddbfd0d243745	0.029159501959888052
131	0x3fc6b98d15e8efad	0.17753757066554723
132	0x3fd41c02a0726b10	0.3142096106400212
133	0xbfd45ee973dc9726	-0.31829296412103003
134	0x3fcb83569d3345ac	0.21494562793536198
135	0x3f9c5880d588b88d	0.02768136313732632
136	0xbfcfd79d00f54114	-0.24876749560144928
137	0xbfebf15ea5f3f57f	-0.8732140771168558
138	0xbfd6b7c09ccaaaf0	-0.35496535598456
139	0x3fe623796f5561cb	0.69183036560849
140	0x3fdd6fe83b703380	0.45995527081031895
141	0xbfb02c7bac9c95e5	-0.06317875827934179
142	0xbff33cd138beee93	-1.2023479668268109
143	0x3fd6753e17ed9dcf	0.3509059175180171
144	0xbfd1aaf7a9e006a5	-0.2760600241600549
145	0xbfc89bc5a4247d58	-0.19225378527424186
146	0xbfe9a01fdc1959b4	-0.8007964419182856
147	0xbff0da13aa1a6cb0	-1.0532414097458904
148	0x3feaecc8528684c3	0.8414041148972945
149	0x3fb3a5416f694a67	0.07674035043718562
150	0xbfe7ea83697278a9	-0.7473771152033538
151	0x3fb8213ba1bc5b85	0.09425709437014802
152	0xbfe28e1ae393e210	-0.579846806037553
153	0xbfea1e201ecd834f	-0.8161774255387203
154	0xbfe3904a5c5bbcfa	-0.6113635829805439
155	0x3fd040184f9222c1	0.2539120461520206
156	0x3fd9b0afced9115a	0.4014091033934811
157	0xbfbb1b55cb1799a1	-0.10588585098557825
158	0xbfc9c6761a79480d	-0.20136905949272013
159	0xbfb32ca31ee95d90	-0.07489985947301236
160	0xbfdc33bd5ed77e70	-0.44065794240848444
161	0xbfdd4e39cc276d60	-0.4578995221797495
162	0x3fe7859b656dac08	0.7350594502471504
163	0x3fd4eb0d3ae43fe0	0.32684641600735453
164	0x3fe5946be33f8a8e	0.6743678511086999
165	0xbfe31e02b533e787	-0.5974134005657427
166	0xbf9b6f1bf674c02d	-0.026791035573467226
167	0xbfe2d4768d56d70c	-0.5884354362994784
168	0x3fd1cc59b97e39e2	0.27809756388242424
169	0xbfe6eed477c00caa	-0.7166540469046556
170	0x3fcb831357bb10bc	0.21493760856367838
171	0x3fa84fefb6efae2c	0.04748486621960199
172	0xbfaf48a1c776b44b	-0.061101012800783915
173	0x3ff3290bed3e5b42	1.1975211398436874
174	0xbfc95cbb7c701144	-0.19814246727049512
175	0x3ff471afd1898e87	1.2777555642177576
176	0xbfe1196d0d03f595	-0.5343537573059388
177	0x3fd9f30fd5b614f0	0.4054603182815546
178	0xbfe6bd5b25b2708f	-0.7106147514600866
179	0xbfdccf9983688b56	-0.4501708777699397
180	0xbfd9b32548f954e9	-0.4015591824184655
181	0xbfd2443ee5c28eee	-0.2854153865575729
182	0xbfb953b421f7bbd6	-0.09893346623697083
183	0x3fe1a029b8df576b	0.5508011446752169
184	0xbfd9859c8a2c29ee	-0.39877999776277206
185	0xbfe9281b0df703aa	-0.7861457131149241
186	0x3f89fb38a14d438e	0.012686197683849956
187	0xbfb1d654826cb4c5	-0.06967666801638746
188	0x3fd5cf5242c0ebaa	0.34077888983636717
189	0x3fd4ba41f7168de4	0.32386826638886945
190	0x3fe0b3b7092485eb	0.5219378641669982
191	0x3f91c1c4ba9e4084	0.01734073056246689
192	0x3fe34b905a92647c	0.6029741066914904
193	0xbfdee94638dc7124	-0.48298793366281445
194	0xbfc8541236169e8a	-0.19006564751656568
195	0xbfdf6f3302ec24c2	-0.4911620644130147
196	0x3fe47c6e07c9bde8	0.6401891853437833
197	0x3fa9d6091669fa21	0.05046108625991886
198	0x3fb6083fcef8aa79	0.08606337359439377
199	0x3ff54d5c5b593668	1.3313869064617396
200	0x3fdc43ea7219ad6a	0.4416452516804471
201	0xbfb5c649ed17f4e1	-0.08505689657609451
202	0x3fdf68c7112ef38b	0.49077011755053296
203	0xbf9011eb31fe9d4b	-0.015693354536464182
204	0x3fd3495b34733117	0.3013523113447873
205	0xbfc6844e11c8192f	-0.17591262691730367
206	0x3fc676094115bfea	0.17547717740990204
207	0xbfc4d13025390261	-0.16263391320719037
208	0xbfbab37be7595f03	-0.10430120847865613
209	0x3fe025602ef168a8	0.5045624653678447
210	0xbfa32df8fd2d810e	-0.0374601182036277
211	0xbfda25078fdeacfc	-0.40851010370052143
212	0x3fcee831d7d4ad04	0.24146101988421986
213	0xbfe4f221a1861930	-0.6545570521127839
214	0x3fdb54ed7a9ad101	0.42705857251282003
215	0xbfdf27ffad37d07b	-0.4868163291532778
216	0xbfd43214743d4f9c	-0.3155566344405487
217	0x3fb5a5388d1e0e92	0.08455232091187728
218	0xbfdf820f56dbfcec	-0.49231322748523954
219	0xbfee6ff94a13e457	-0.9511686751203666
220	0xbfa1aeae59e78429	-0.034535835718778
221	0x3fdb8a95a8825cbd	0.4303335328672338
222	0x3fc24ca02ded1262	0.14296343080981716
223	0xbfca08c79e9a8689	-0.2033929371291843
224	0xbfe3554fd45d6b16	-0.6041640422584773
225	0xbfd55719feb163cc	-0.33344125625950194
226	0xbfd0abdb04296487	-0.26048922926344925
227	0xbfc8ac3367fcce0a	-0.192755151534229
228	0xbfa3f13aca22c06b	-0.03894981114842796
229	0x3fe3a2249de234e8	0.6135428508438538
230	0xbfe8cd8f6dc58ebd	-0.7750928062418648
231	0xbfce026c74de835d	-0.23444896418097985
232	0x3fb79970080d677a	0.09218502232161355
233	0x3fbcdd8342194cc0	0.1127550159811106
234	0x3fcbae8ad355e5cd	0.21626410788648656
235	0xbfae44cf9dade8e3	-0.05911873626514976
236	0xbfe794407cb7949a	-0.7368471561318473
237	0xbfa9b03842263dfe	-0.05017257506835547
238	0x3fc815e2a6e782e1	0.18816788816095367
239	0xbfc33bae7bec5e2e	-0.15025883723204586
240	0x3fcdf30db8cb4d0a	0.23397990725661827
241	0x3fe9713fa7c17f6c	0.7950742985230881
242	0x3fd7a0d608c04ebc	0.36919165472611915
243	0xbfec59454020cfbf	-0.8858972790244407
244	0x3fba80fea1b7385d	0.10353080223214435
245	0x3fd05351e2673df2	0.2550854407281512
246	0x3fe1b981a4702f77	0.553894826095969
247	0x3ff0062025e2f9b4	1.0014955024667929
248	0x3fd801a08ccdfaed	0.3750993132634182
249	0x3fe594ffd19fb1f3	0.6744383901801129
250	0xbfe62237c31f507f	-0.6916769801123478
251	0x3fc6406efaed9cfc	0.17384135486938834
252	0xbfd2207e4cbf3649	-0.28323323721710786
253	0x3fc52a43a5a8bb40	0.16535230244468302
254	0xbfd0809ed18ae5c7	-0.25785036528722255
255	0xbfdb43f08772b214	-0.4260217020735422
