telegbot/xi_bias.npy (npy, 4224 bytes, 1 tensors)

array f8 [512]
000000 04 c2 84 7e 84 0a be 3f 5f 17 25 2e 7b c0 db 3f
       0.11734798516113903 0.43362311846100526
000010 60 17 ed 11 cd ac bf 3f a8 e8 30 3e 9e a4 b6 bf
       0.12373048484468319 -0.08844937342010672
000020 2a ed 80 a1 d8 ff a3 bf 98 c2 b5 42 07 a7 d7 3f
       -0.039061326708600255 0.36956960215233314
000030 22 e5 7f 9c b2 14 be 3f d1 2e cc 63 f7 2b d1 bf
       0.1175033218459203 -0.26830849405153595
000040 50 07 c2 20 87 c3 cc 3f 45 5e 7b f0 36 b2 d1 3f
       0.22471703624256145 0.27650235638200044
000050 9f 51 ac 57 dd 17 b1 3f 45 cb 9c 66 d0 56 b9 3f
       0.06677039518792192 0.09898092751681727
000060 92 6f 73 4f d2 b3 a0 bf d1 12 7d 8e 33 4b d5 bf
       -0.032621929358099724 -0.3327149287691045
000070 d6 fe ff 7c 9e 0c a3 3f 66 a8 b9 4b 62 e1 c3 3f
       0.037205651053225416 0.1553156728508071
000080 05 9f 8a c1 ee 1f cb 3f ce c5 f9 bb 98 14 c9 3f
       0.21191200685756698 0.1959410589075063
000090 c9 9d 30 7b d2 84 c2 bf 22 3c 06 69 d3 e9 ce 3f
       -0.14467841162807663 0.2415107977689966
0000a0 f3 25 d6 14 c8 4a c5 3f 2c 1d da 6f 90 40 d2 3f
       0.16634465234191928 0.28519068644569034
0000b0 3c 84 ea 7a a6 5a d8 3f 88 f3 bd 57 65 fc d1 3f
       0.38053285602115117 0.28103002136759203
0000c0 20 b6 e1 f6 60 3c d5 3f dc 3e 18 5e 77 b8 d4 3f
       0.3318102274850805 0.3237589281934399
0000d0 f9 4c dd 28 9e c3 c1 3f f4 38 03 ac 02 23 9b bf
       0.1387822818311191 -0.026500741719069645
0000e0 09 01 9c 97 59 65 c3 3f ab f6 84 05 e6 90 a2 bf
       0.1515304556160191 -0.0362617379891906
0000f0 dd 79 f6 6d f1 33 cd 3f 7c 28 88 92 87 9d d7 3f
       0.22814767712857434 0.36898984250786504
000100 e2 1d d6 e7 15 e2 d1 bf 90 c0 ae ab 18 3b c8 3f
       -0.279424168017128 0.18930347807827674
000110 cc 1e f8 7e 15 bd b2 3f ab 80 76 b5 05 67 d0 3f
       0.07319769239267798 0.2562879821871415
000120 47 fe 9e 15 fc 66 c2 3f bc 4d 7d 60 1d 17 d6 3f
       0.1437678437778109 0.34516081259536313
000130 fa 6f b7 99 fd 68 dd 3f aa cc 14 e0 28 c1 da 3f
       0.459533119310208 0.4180395305913388
000140 3c 68 d1 86 f2 54 b9 bf 52 a9 7a 69 38 1c e1 3f
       -0.0989524439950466 0.5346948681010792
000150 78 47 e1 eb 28 d2 b5 3f 14 72 20 b7 c4 66 e4 3f
       0.08523803480900749 0.6375449730581431
000160 a6 5e cb 32 4a a8 d1 3f 32 91 74 d7 e4 42 ab 3f
       0.275896596530837 0.0532447350508697
000170 fb d6 e0 4f 27 5c ae bf 70 c3 61 4b b2 44 ae 3f
       -0.05929682588650383 0.05911786241711681
000180 b8 e4 bc 79 19 e8 d4 3f d3 84 35 90 56 f8 b1 3f
       0.32666623009169937 0.07019558926323848
000190 b3 b3 27 f9 53 d6 d6 3f 04 bd 28 79 25 9d d3 3f
       0.35683154422332136 0.3064664538569135
0001a0 b4 49 3a 1a eb a1 9c 3f 70 a7 98 99 cc 8f d3 3f
       0.027961419559298498 0.30565180778159284
0001b0 8c fe a4 b6 8b fb ad 3f 54 6a 18 9e 2b 27 d6 3f
       0.058559766812774944 0.34614077033044066
0001c0 f8 0a 41 b6 40 97 df 3f a5 00 81 c1 e3 02 c6 bf
       0.4936067371201456 -0.1719631857722607
0001d0 21 cf ce 07 c1 8f db 3f 59 8c 65 6d ee 42 cf bf
       0.43064904940114174 -0.24423008290895856
0001e0 c5 d7 62 49 71 6d e3 3f 40 84 af c3 5e b3 d4 bf
       0.6071096833536492 -0.3234478865616133
0001f0 a5 02 5b ce 67 9e ce 3f b3 f8 00 32 eb 8a c4 bf
       0.23920915199234574 -0.1604894632491259
000200 6e 0d 03 c7 e4 60 d1 3f 29 36 d3 d6 33 9d e4 3f
       0.2715389197803323 0.6441897579003967
000210 fa 16 34 2c 11 78 d1 3f f7 47 4f 33 af b8 b5 3f
       0.2729533130335394 0.08484930994680427
000220 4b a3 e0 ea a5 f3 da 3f f8 95 81 f3 bd e4 c0 3f
       0.421121100781012 0.13198065175963314
000230 74 ab d1 77 12 3e d3 bf e7 3c 77 d9 15 69 c0 bf
       -0.3006635828120843 -0.1282069503635974
000240 b1 92 e7 d0 f3 1d a8 3f 4d 70 37 a0 6e 48 d1 3f
       0.047103518725440614 0.27004590650699783
000250 5d b1 45 a5 63 7b a4 bf 1f fa e3 69 d4 8e a0 bf
       -0.04000388519748086 -0.032339704443064436
000260 d2 eb 3c 50 33 02 d3 bf b9 aa ce 05 d7 5d be 3f
       -0.2970093043874701 0.11861938373355486
000270 b8 30 11 11 a4 62 ce 3f 30 37 14 7a e3 23 c4 bf
       0.2373852809272472 -0.157345232590552
000280 ef fc ca 03 3c 6a d3 3f 3e 7d 8e 43 f7 d1 4a 3f
       0.30335903520967994 0.0008184869139888152
000290 4f c4 50 9a b6 cd c2 3f 55 47 14 96 31 4b bb 3f
       0.1469028714650755 0.10661611475032136
0002a0 a6 51 d0 f2 f0 81 c9 3f e1 95 7f 39 b3 b9 bc bf
       0.19927799087657866 -0.11220855859536229
0002b0 c2 7c ba 25 16 36 e3 3f 5e 2d 97 17 06 e1 ba 3f
       0.6003523575672249 0.10499609065953083
0002c0 a4 59 00 a0 f1 fc d7 3f 3b af 28 77 a1 36 af 3f
       0.3748134672654493 0.06096367435051638
0002d0 0e 8c ff 47 a0 c8 94 3f 90 47 24 80 af 4f b6 bf
       0.02029657782976462 -0.08715340498409163
0002e0 4b 53 34 29 ea f9 b9 3f 8e ce 6d b1 6e c7 e0 3f
       0.10146964555708597 0.5243447747620438
0002f0 95 97 fd ca 41 cf d5 3f 5c e8 df 9c df 7a b8 3f
       0.3407749636011144 0.09562490062663315
000300 cc 15 ba 77 dd 32 d3 3f ad eb b6 29 79 97 c7 3f
       0.29997955982284163 0.18431009804575407
000310 db 28 72 7d 81 55 d1 3f 29 6e b3 8a b6 8d cf 3f
       0.2708438611085861 0.24651223919396273
000320 9f 9d 8a 58 9b 65 ac bf dd 01 20 e4 76 23 e5 3f
       -0.05546269851520979 0.6605791526381456
000330 b3 31 cd d4 c1 69 c7 3f bb 27 2a 41 2f 5e ca 3f
       0.18291495218944717 0.20599928552502242
000340 a4 b5 70 12 85 42 d6 3f f6 c2 58 25 c3 89 d5 3f
       0.34781004715736175 0.33653334281102276
000350 c6 50 88 84 ea 56 d8 bf 79 26 c4 b7 76 da cc 3f
       -0.3803049368155026 0.22541698430022786
000360 8d 4a c1 0f 8e 48 e5 3f 6d 0f 98 aa ad 34 de 3f
       0.6651068027225208 0.47196523341721425
000370 62 e8 57 41 1d fe c0 3f ac 7e 83 f3 2b c6 dc 3f
       0.1327549523410339 0.44959543972616234
000380 d7 31 78 9e c4 16 c9 3f e9 c3 23 1c de 95 cc bf
       0.1960073255326182 -0.22332359670647797
000390 eb 57 53 dc 26 90 cd bf f3 e1 56 99 cb c1 b7 bf
       -0.23096166380008695 -0.09280083173405966
0003a0 da 46 5f 83 32 6c d2 3f 98 b9 b6 4d 95 de d6 3f
       0.2878538401538272 0.35733540143237397
0003b0 56 e2 52 b8 88 a6 be 3f 0c 8f 20 ee 49 b9 9d 3f
       0.11972860813228556 0.029027133139734082
0003c0 9e ed 5d 27 6f 33 c1 3f 7e f0 ff 4e 06 15 ce 3f
       0.13438214704715973 0.2350166211834938
0003d0 53 c6 9c 6f 88 a1 c0 3f 9e 21 5f 9f f5 99 b0 3f
       0.12992959451507832 0.06484923497112624
0003e0 8f 0c 25 35 37 a3 c1 3f 83 05 ee ad 11 a0 da 3f
       0.13779344649274036 0.4160198401005674
0003f0 8f 6a 19 03 4b ed cc 3f d6 be c7 0f fa 2b d3 3f
       0.22599160815555705 0.29955913106003373
000400 4e d6 70 9b 89 0a d5 3f 25 b1 88 ff b6 7b b3 bf
       0.32876815967333506 -0.07610648859617138
000410 15 53 b4 40 bf e5 d4 3f 2f ba c0 4e a5 9c d0 3f
       0.32652264899052 0.25956089678485034
000420 64 81 21 29 4c 5c d0 bf 9b 54 eb 9c 98 bd e0 3f
       -0.25563339249312933 0.5231440605954448
000430 1e 1a 84 10 71 e2 d0 bf fe 87 b4 7b e3 72 c3 bf
       -0.263820901993684 -0.15194362201970074
000440 94 d2 64 71 f3 46 d7 3f 91 fa d4 7e ff 77 cd 3f
       0.363705502258463 0.23022454922643878
000450 4f 38 a2 72 ff 4e d5 3f 06 e6 89 ea 77 87 a9 3f
       0.33294664568609716 0.049861667041977184
000460 e4 a3 80 c5 1f 4e cd 3f 69 3c fb 8f 9a 90 ca 3f
       0.22894665855099483 0.20753795652715049
000470 6f 7a cb 7f 35 b6 db 3f f0 d2 93 ec ca bd d9 3f
       0.43299615364040894 0.4022090254141366
000480 09 3e 61 89 9d d3 aa bf 27 c9 b1 77 62 a1 c7 3f
       -0.0523957472038284 0.18461256832558456
000490 dc 89 0d fe a4 c7 b7 3f 4b 2f 6f 63 9b 34 c8 3f
       0.09289008333647736 0.18910543780509168
0004a0 6e ca 0e 60 51 66 c7 3f df 8d 1b 9b 88 3a a6 3f
       0.1828099936515914 0.0434153260555623
0004b0 1b dd c4 b2 d7 11 c1 3f f9 61 42 d7 5f 7f 9f bf
       0.13335701207118053 -0.030759332192788567
0004c0 69 40 14 1b af 98 a6 3f 41 37 17 8a 4e 79 c2 3f
       0.0441336365275909 0.14432698958119697
0004d0 92 e4 bf 6f 72 cb d5 3f b2 ba 85 f6 fa 9b b6 bf
       0.3405424205116755 -0.08831757086384576
0004e0 31 2c 6b f6 a3 8c b8 bf f6 ee 34 95 ba 7e ab 3f
       -0.09589600339965966 0.053701239312855906
0004f0 b0 b5 9f ab 8d 67 cf 3f 12 f2 da c1 63 64 dc 3f
       0.24534769897529207 0.44362729960610736
000500 0e 83 8c 78 1b 68 da bf 47 cd 43 1b 16 b1 d6 3f
       -0.41260420582152413 0.3545584932573615
000510 e5 a2 0c f9 4d 15 a4 3f fb 00 09 25 f0 96 c6 3f
       0.039225041057141564 0.1764812641940877
000520 6e 15 8d 4d d2 3b e7 3f cd 79 97 70 4c 7b a4 3f
       0.7260524286909182 0.04000319361124447
000530 b7 ae 54 3d 32 10 d5 3f 14 26 65 09 c1 fa c9 bf
       0.3291135405477052 -0.20296490629907338
000540 c3 e8 56 17 25 07 bf bf 10 f0 d5 6f ae de 75 bf
       -0.12120277232944247 -0.005339318651177663
000550 10 ef 0f 1c ea af ae 3f e3 14 01 14 32 13 c8 3f
       0.05993587105328235 0.18808580376404568
000560 fc 3b d9 41 ee 0b 93 3f 42 29 6e 7d df d9 90 3f
       0.018600199479177335 0.016456119566592216
000570 ee 0e 3c 63 2c f9 d3 3f e0 89 06 f3 d9 77 c2 3f
       0.31208333674315625 0.14428257338029393
000580 9d f5 cd a3 cb b4 c3 3f 68 71 76 4c 11 a3 ae 3f
       0.15395493982570665 0.05983785684950044
000590 ad 61 52 5d 28 ee dc 3f 19 43 29 53 29 47 c5 3f
       0.4520359908433658 0.16623417435268875
0005a0 15 46 e0 00 42 12 9e 3f 54 75 ff ed f7 07 de 3f
       0.029366523078413993 0.4692363571355902
0005b0 db c4 bc ae 3a 45 cd 3f 77 6a ce e5 b3 d0 c5 3f
       0.2286752083978517 0.17043160172473268
0005c0 40 2b 4d 1d 9c df b9 3f 69 4a 8b fe 8c 27 ca 3f
       0.10106826510779587 0.20433199337874733
0005d0 7d ad e8 18 5a 5b c3 bf e7 10 e7 b4 ab 2e c4 3f
       -0.15122534004454372 0.15767427762160155
0005e0 b8 f4 6b 26 02 12 e1 3f cb f4 40 a4 54 bb c2 3f
       0.5334482908653149 0.14634187717630306
0005f0 48 b8 fd aa 15 a6 b3 bf 3d 71 10 93 8b 03 cb 3f
       -0.07675300049388156 0.21104569130774023
000600 45 13 a2 c6 ff ee a9 3f 00 04 e8 0b fd 07 bc 3f
       0.050651543614583384 0.10949689427071974
000610 5d 5c 32 96 69 61 d2 3f 03 c0 47 82 d3 19 c0 3f
       0.28719558398865336 0.12578815327970014
000620 94 67 5f 18 c2 ff c2 3f a3 2e 8a 1d fb 32 e6 3f
       0.1484301203734587 0.693723256773826
000630 b0 b1 7f 24 15 35 a7 3f 0d b0 42 25 1b d1 e6 3f
       0.04532686300794653 0.7130256393188589
000640 26 ea f5 31 02 82 d7 3f 6c 94 2c 7d f1 a2 79 3f
       0.3673100936790966 0.006258910480743212
000650 22 c3 5a a4 ec 1b cc 3f 7a 3f 4f ea fb 37 af 3f
       0.21960218453525565 0.06097399935936117
000660 44 82 fb b4 8f f8 d7 3f 6f de b3 0c 70 fa dc 3f
       0.3745459811598588 0.45278550377358945
000670 ed 45 5d dc aa f4 d5 3f c9 44 97 e2 f4 b6 c9 3f
       0.3430583145137394 0.20089589180000747
000680 c9 3f 91 0c 36 8f e4 3f 61 d1 80 c2 1d 88 ed 3f
       0.6424818273026115 0.9228657530680203
000690 44 25 05 24 ab b9 b6 3f 8a dc fd b8 43 07 e1 bf
       0.08877057675740213 -0.5321367848508924
0006a0 e4 59 ee 92 32 9c d3 3f dd 81 11 8b 1c b8 d4 3f
       0.30640854214416735 0.3237372739877438
0006b0 ad 15 31 41 3f 07 d1 3f ad 2d a6 ec 69 82 d7 3f
       0.26606732717876974 0.36733482465998685
0006c0 82 cc 1e 6f 8c 6b cb 3f a0 31 33 f5 07 f5 b4 bf
       0.2142196219043378 -0.08186387764289416
0006d0 3e 55 8c a5 92 dc c4 3f 4b 8d 7a a8 91 a9 c3 3f
       0.16298134883315102 0.15361233450412679
0006e0 9f f3 fe 18 1d 32 c1 3f 22 ea e9 b7 04 91 c9 3f
       0.1343418476152722 0.19973811130678693
0006f0 be 82 73 98 3f 3a b3 bf 65 4f 4f 87 e4 f4 cf bf
       -0.07510755035356007 -0.24966103178905566
000700 de 66 ad 56 58 29 d7 3f ba e7 b6 ca e8 a0 cc bf
       0.3618985029657845 -0.2236605634514584
000710 fd 81 7c 2f 18 61 91 bf 32 22 01 b2 cf 6e df bf
       -0.01697194852670413 -0.49113838561291623
000720 1f 4a 18 65 45 7e a3 3f c0 0c e6 65 7f d2 bb 3f
       0.03807274684017536 0.10868068921813556
000730 e9 04 95 6a 5c 7e 97 bf fe 2e bd 55 6a 7f ce bf
       -0.02294296646619368 -0.2382634085318997
000740 4d 90 4c 22 4a 9f 75 bf 3b 20 98 0f 35 62 b2 bf
       -0.005278863511907939 -0.07181102400511545
000750 a2 68 54 ea b6 0b a3 bf 1b 1a ae b5 20 6e c6 3f
       -0.03719874964208826 0.17523583289239827
000760 de cc 9d 18 50 8b db 3f bf 46 8d 59 39 08 c8 3f
       0.4303779831308939 0.18775097725533915
000770 f8 43 a0 d6 12 c2 d2 bf 30 f6 1e 20 35 b8 c2 3f
       -0.2930953117329973 0.14624656742482633
000780 a5 cf 98 4d 6c 43 cb 3f 4e f1 8a 5a 99 89 b2 3f
       0.2129950884715274 0.07241209469333862
000790 23 8b 21 09 68 da 8f 3f b5 d0 54 67 0a 69 a4 3f
       0.015553295878083134 0.03986389647835279
0007a0 dc 36 71 53 03 77 9d 3f c2 b1 21 6c 7b 74 d1 3f
       0.028774311035070763 0.27273450431564694
0007b0 c8 09 e3 21 d2 81 b3 3f 06 c3 a3 b2 44 47 e3 3f
       0.07619965865436662 0.6024497498566184
0007c0 da 69 3a a1 85 8c c3 bf 46 46 1e 8a 76 eb b3 bf
       -0.15272589085073102 -0.07781163093593432
0007d0 da 61 b0 e6 91 a4 b5 bf 85 a5 df ad a1 4c b5 bf
       -0.08454238779120918 -0.08320055479966555
0007e0 fe 0e 12 10 3c 2d cf 3f 9f ef 97 f0 2d d5 9b 3f
       0.24356795105642698 0.02718040257421672
0007f0 b4 90 76 33 d2 54 d6 bf 57 b6 7a 1a 46 d6 e0 3f
       -0.3489270689554005 0.5261564747976973
