telegbot/xi_bias.npy (npy, 4224 bytes, 1 tensors)

array f8 [512]
-0.0645749770944515 0.21325204853536342 -0.20919772371144987 0.15659954896889822 -0.19138551488303684 0.12276054586284965 0.19911344337738102 -0.2579124679426005
-0.04539901087976771 0.3936154960897152 0.11406862646449001 -0.01771371925095647 -0.05596019557691727 -0.5903076914882333 0.2498963600928673 -0.026111167084249095
0.11860855121721298 0.49019579504398225 -0.3840826506328775 0.0048231419667749105 0.2211552688517465 0.2797438789547564 0.12420046349133562 0.3949047112411496
0.21881938284240976 0.17579637265999878 -0.17028783713590837 0.18706316505052412 -0.42208406857713565 0.062323850485948955 -0.09039971221094331 0.1679741505442378
-0.786109217237189 0.308662775709847 0.012906218796729482 0.2087985256094655 -0.12483354369355927 0.18474138925748443 0.31993305893932455 0.04736017039151682
0.042394796056735934 0.32398657769138917 -0.05849902779397572 0.47510537193837754 0.2272667276824577 -0.05112617440105985 -0.653068714810912 -0.09709146829921124
0.06545486683263094 0.09262083156611257 0.3422465429534229 0.3790383775161243 -0.4315317611443556 0.17558426085537351 -0.12439489898768907 0.19592007042443618
0.26068746584941316 -0.0743761316992122 0.28639024782155376 -0.22846655952210068 0.3830823873538335 -0.5087090030035656 0.12603905334333398 -0.14507077267012267
-0.10989325095509789 0.14693633893056826 -0.031403509787024345 0.41130895483435187 0.4118903892270324 -0.24643687760371213 0.10866471282519106 0.0265838494837638
-0.13429077176937032 -0.024118195956851624 -0.5436051465754017 0.2674326428669507 -0.37829240162946365 0.13860692076063633 0.227176286947032 -0.23674117262120478
0.5638574430794913 0.27654325925761586 -0.1338302672543474 0.13893971895214008 0.16025387360340582 -0.2552058107206002 0.5632486000990967 -0.21270393289895242
0.6240941796018185 -0.0993440794958116 5.972706877728918e-05 -0.09546244033361714 -0.28979755237311006 0.1571433441078365 0.41344234921408923 0.13263607303135805
0.4018912994133582 0.07265429918370463 0.5345851865245633 0.02520614948234468 -0.40017807961150004 0.6857027726674032 0.17925234189700176 0.13620315821514414
0.5932855760262462 0.5980589563651548 -0.21237703268348831 0.14876707986667048 0.5494794889711109 0.26505529218900026 0.333655790831848 0.27381205617300153
-0.13347178697091125 -0.37994314814275715 -0.3156640159607289 -0.18069471492080896 0.13931701971903412 -0.05106536404792335 -0.38805733136901116 -0.2481217173892507
0.11541848842929243 -0.0659964276191643 0.28519004405948933 0.14094715560632612 0.4468423596700797 0.34064077634239825 -0.3480547169777832 0.3867341487300635
0.11235364135674483 -0.02272709396320906 0.5923465202807855 0.19216049863751006 -0.8611925574275996 0.32149003799479714 0.026095266379158745 -0.6406471858780424
0.501660203865983 0.014345482729604215 0.3274010257078473 -0.1351798904905494 -0.07791272012895026 -0.008433806743258693 0.3354278055047071 -0.3272325600015236
-0.171925255458845 -0.21944722712399403 -0.1965857847554662 -0.2749250962397108 0.33182587168755234 0.09172231265980121 0.45226416643847583 -0.1488523928970967
-0.24852442505124767 0.031408688006043094 0.5301644213772144 -0.04620576594568089 -0.1928893025128925 -0.03375672580125396 -0.18550848123168945 0.12904315499410224
-0.3077490803446816 -0.10394921461038543 0.2678323556557156 0.193139246650814 0.7650173081933551 0.08747979025565725 0.10358834849459214 0.09032802181034538
-0.512702101007275 0.14121700159897313 0.27037553474539655 -0.16495213303586514 -0.00916539968985621 0.03763093911993356 0.16269742248286279 -0.10668072445220353
0.01010331840214908 -0.07096523461475142 -0.03674742007412052 -0.07821441184731023 -0.11905003343398321 0.6229994186651501 0.3898737490714597 0.08783701701099239
-0.1980407247335855 -0.0007613659281120097 -0.4833317031797012 0.25877643129823286 0.4564069205830955 0.3297809878906981 -0.1470095284061148 0.4788392603776834
0.13444114474172922 0.04401219235138554 0.04667637424431729 0.32086238376744014 0.24404391103236733 0.05884310467917784 -0.018382272394257014 0.43469690420204715
0.5018184241282894 0.5076358117987902 0.22662653956922094 0.2835336284154529 0.16433729762631236 0.2399167718279918 0.08899776354004976 -0.24733389084756138
0.5869400360012532 0.46795124575469244 0.02053747528527848 -0.346102105446237 -0.09079792709626419 0.29722862068127315 0.21844188877817497 -0.10403265939758365
0.35471045255548717 -0.2465193567868115 -0.014215892656400315 0.12115858242106801 0.5345916564772724 0.2662330415881277 0.2641207539988689 -0.14262420759286587
0.049063432204279105 -0.169905041997304 0.09141833495944743 -0.9651535148011435 0.15340116252645447 -0.21361076015633554 -0.004559353069577751 -0.45533043402921497
0.20009781547023056 0.15142250113553907 -0.09705681897516799 -0.024971130285683665 -0.04872186114593269 0.2850848872412302 -0.5510752662676002 0.22160231557881632
0.25875325515655606 0.2545908913414164 0.16132488400009332 0.23272614083863205 -0.16733188991626383 0.13371367177898505 0.5309394966006066 0.49039181776033497
-0.10080612243484839 -0.11463778076232259 0.1800587887122749 -0.4612090026393224 -0.15152833223176834 0.22753606239047033 -0.3333178743768029 0.14560498757680893
00000000: e1b7 c256 fc87 b0bf 8dd7 21d7 d74b cb3f
00000010: 4d81 deb2 fdc6 cabf eee3 b13a 740b c43f
00000020: dae5 ac0f 527f c8bf 0655 b831 3c6d bf3f
00000030: 6cf9 bf9f 8c7c c93f d2d2 c24b a381 d0bf
00000040: deaa ff05 8a3e a7bf 79dd b90c ff30 d93f
00000050: d824 2afc 9933 bd3f 4958 7e93 8b23 92bf
00000060: 16e1 c293 d0a6 acbf 729d b0f4 cce3 e2bf
00000070: c480 fe9a 9afc cf3f 3fbc bfc2 e2bc 9abf
00000080: acfd 8048 215d be3f 9a70 162f 5e5f df3f
00000090: 0e78 db65 cf94 d8bf 7d22 2e50 6ec1 733f
000000a0: 1b36 87db d04e cc3f a87a d7de 52e7 d13f
000000b0: 60e4 d700 9acb bf3f bb4a f468 1e46 d93f
000000c0: b4ff 8406 4602 cc3f 7b41 aadb 7e80 c63f
000000d0: e5e0 b3e9 fdcb c5bf f0d0 1690 aff1 c73f
000000e0: 0ce4 ace5 6c03 dbbf c725 3267 e9e8 af3f
000000f0: 4689 837f 6f24 b7bf c897 944d 2d80 c53f
00000100: b9c5 6384 ce27 e9bf e8a5 ca83 21c1 d33f
00000110: 7e00 2d5d 936e 8a3f ce0b 79fb e8b9 ca3f
00000120: 418d 9b53 17f5 bfbf 550c 8a18 9ba5 c73f
00000130: d46e 4382 c879 d43f cbd9 ed9d 973f a83f
00000140: 8425 2b4d c5b4 a53f 3ac2 e132 32bc d43f
00000150: ab22 72a6 95f3 adbf 9845 a85c 2068 de3f
00000160: 64bb 6e7d 1317 cd3f 8456 0bbe 352d aabf
00000170: 70ea 845c f0e5 e4bf e1d3 1089 fcda b8bf
00000180: e201 6970 a6c1 b03f 2139 81b2 ffb5 b73f
00000190: 4fdb 490b 5ee7 d53f fb14 d72e 2a42 d83f
000001a0: f737 5364 379e dbbf 0178 0889 8b79 c63f
000001b0: 30fc f016 58d8 bfbf 212e 8dab e813 c93f
000001c0: e038 137b 1aaf d03f 7048 406d 500a b3bf
000001d0: b65c 12c3 3754 d23f 7f43 b068 643e cdbf
000001e0: b2ee 56fd 6b84 d83f 3598 621a 5847 e0bf
000001f0: 0870 1036 0c22 c03f d39f 1cd8 ad91 c2bf
00000200: 743c e7ce f621 bcbf 617f 2659 cfce c23f
00000210: 129f 07ef 1e14 a0bf dd30 64cb e252 da3f
00000220: 7f13 d181 695c da3f d40b eb5c 3e8b cfbf
00000230: c73c d05b 73d1 bb3f 00c8 89f0 cb38 9b3f
00000240: c4b7 73a4 7030 c1bf 6527 7ebb 70b2 98bf
00000250: fe50 cf9e 3665 e1bf 08c5 bfcd 9d1d d13f
00000260: dab9 5455 f135 d8bf ed45 d51f dfbd c13f
00000270: 929e 6ed1 1c14 cd3f 812b 03e5 884d cebf
00000280: 3b3e b4c3 1e0b e23f 9534 9c7f e2b2 d13f
00000290: 2743 89a6 5921 c1bf 5ce7 81d6 c6c8 c13f
000002a0: 888b 17ed 3283 c43f 42d3 b2c0 4a55 d0bf
000002b0: 5b30 9eed 2106 e23f c90a c4e9 e139 cbbf
000002c0: ba70 605b 94f8 e33f 2159 7c14 9d6e b9bf
000002d0: 70aa e874 6e50 0f3f 46af 3afb 3970 b8bf
000002e0: 91d0 7908 0b8c d2bf f115 dde9 451d c43f
000002f0: abfa 29e6 d675 da3f 3043 f805 38fa c03f
00000300: 92bf e148 96b8 d93f 4b66 e8de 7899 b23f
00000310: e591 a164 521b e13f 2131 bd0e a4cf 993f
00000320: 817a 2085 849c d9bf b241 ecf0 46f1 e53f
00000330: 8fea 16a1 bdf1 c63f bfae 12e7 1a6f c13f
00000340: 7914 4708 32fc e23f 2662 5589 4c23 e33f
00000350: 8d07 e6ac 2b2f cbbf b0d7 5fb7 cc0a c33f
00000360: d384 5e02 5695 e13f be57 e578 aaf6 d03f
00000370: 7b9a 6fd1 9d5a d53f 1cde a000 2386 d13f
00000380: 7147 fd7f 9a15 c1bf f931 e710 fd50 d8bf
00000390: 94d2 44d8 d633 d4bf aa8c 9221 0121 c7bf
000003a0: 9116 bcdd 23d5 c13f ca9c 1649 3d25 aabf
000003b0: effc cc6a eed5 d8bf a89d ced2 73c2 cfbf
000003c0: 3556 28e9 108c bd3f c4f2 4652 24e5 b0bf
000003d0: ee56 18be 8d40 d23f ed8d e56f 8e0a c23f
000003e0: 9007 50b2 1099 dc3f 15c7 84f8 0ecd d53f
000003f0: dfd6 a84a 8746 d6bf 80b0 4296 40c0 d83f
00000400: 26b7 364f 35c3 bc3f a56c 3875 c545 97bf
00000410: 072c 90b0 80f4 e23f 9896 9d18 b798 c83f
00000420: 7cb9 b6b1 e38e ebbf 5c5b cbf3 4a93 d43f
00000430: 4a30 b7ae b7b8 9a3f 29dc f386 2e80 e4bf
00000440: 10e4 29b3 990d e03f b713 5a19 2a61 8d3f
00000450: 4de4 856e 23f4 d43f 36ec 5d1c 934d c1bf
00000460: 2270 e588 16f2 b3bf 5007 2561 be45 81bf
00000470: f8f3 b32f a677 d53f 4d25 d9d5 60f1 d4bf
00000480: fdad c692 a501 c6bf 2104 d9c3 d816 ccbf
00000490: 710d 3116 b929 c9bf ddbf 4c6e 5f98 d1bf
000004a0: bb57 b794 a23c d53f 0ef5 2f0d 1d7b b73f
000004b0: 8f61 0067 e5f1 dc3f db51 b65f 980d c3bf
000004c0: 8e18 edfa a5cf cfbf 7baa 97af cc14 a03f
000004d0: 3b2c 6a60 1bf7 e03f 1a25 3f3b 48a8 a7bf
000004e0: 8c43 05bf 98b0 c8bf eb3f acc2 8f48 a1bf
000004f0: 7aa7 02ee bdbe c7bf 4075 3c71 7c84 c03f
00000500: 4416 dd32 29b2 d3bf 394d 326d 6a9c babf
00000510: 2c86 1652 2a24 d13f c23b f86d c9b8 c83f
00000520: ac0f f293 057b e83f 3280 3556 1365 b63f
00000530: a4ea 0719 c484 ba3f 987a 96bb bc1f b73f
00000540: e455 8d3c 0e68 e0bf d1dd c011 6613 c23f
00000550: eaad d72f d54d d13f 96b1 65c8 261d c5bf
00000560: 0bb1 611f 4fc5 82bf d3fe acc9 5c44 a33f
00000570: c88b 5ae6 44d3 c43f e6c3 a28e 6d4f bbbf
00000580: 094a f270 0cb1 843f 65c5 d211 c72a b2bf
00000590: 8887 dcce 8ed0 a2bf 4ec7 f514 dc05 b4bf
000005a0: 3ec9 2f20 107a bebf ab00 137a 9cef e33f
000005b0: 512c 7506 b1f3 d83f 94be 709b 7c7c b63f
000005c0: b5e1 0002 6659 c9bf b6ce 79e1 ccf2 48bf
000005d0: 06b7 9118 e8ee debf 31b2 5905 cb8f d03f
000005e0: 42a3 645f c535 dd3f d851 75b7 211b d53f
000005f0: d831 5a4e 35d1 c2bf 0b3b d76c 4da5 de3f
00000600: 1586 f30f 5e35 c13f 5086 8c1d c488 a63f
00000610: 251a c039 f7e5 a73f 720e 3361 0289 d43f
00000620: 8002 56b4 d43c cf3f 8d64 62f4 ae20 ae3f
00000630: b6b9 096b cdd2 92bf 5f18 cef6 12d2 db3f
00000640: 0b29 0583 e50e e03f ee88 3e75 8d3e e03f
00000650: 837f ed33 1902 cd3f d913 573b 6a25 d23f
00000660: 35b5 682b 0109 c53f e1ad 61c0 97b5 ce3f
00000670: fa57 d2b3 8ec8 b63f a3fc 300e a3a8 cfbf
00000680: 8bd4 6a78 36c8 e23f 21e3 28c8 e9f2 dd3f
00000690: bc4d c5a2 c607 953f 24f9 fd71 8926 d6bf
000006a0: ce4c 6c6f 883e b7bf 71b8 5031 cb05 d33f
000006b0: 417a 3060 e7f5 cb3f 771a d465 e2a1 babf
000006c0: 809c 5178 93b3 d63f d57a 9d3f f28d cfbf
000006d0: b76b 57d0 381d 8dbf 37d2 20b5 3f04 bf3f
000006e0: 6819 29f6 5f1b e13f 5714 af4f f609 d13f
000006f0: 22ae 27bc 5ae7 d03f d858 9d91 8241 c2bf
00000700: 9f68 7e99 d71e a93f 16e7 66cb 72bf c5bf
00000710: 6ad5 e726 3167 b73f 7517 b69f 89e2 eebf
00000720: aa18 1c38 a6a2 c33f 09fb 78ee 9857 cbbf
00000730: e330 3205 d4ac 72bf 8bda c142 2224 ddbf
00000740: 250c b922 ce9c c93f 92b9 2001 d061 c33f
00000750: c425 5a37 b7d8 b8bf 4446 af2f 0892 99bf
00000760: 70ae 7160 12f2 a8bf 513c d2ae d43e d23f
00000770: 6a1f c898 68a2 e1bf 627f 10f5 765d cc3f
00000780: 8361 28d0 698f d03f 95ef 0a98 374b d03f
00000790: c6db 6736 4ba6 c43f 67c1 e95d f8c9 cd3f
000007a0: 3555 62a1 216b c5bf 0fcf a893 871d c13f
000007b0: e5bc c1d3 74fd e03f a36c e05c 9462 df3f
000007c0: 7d20 1817 6ece b9bf 0a9c 42cf e658 bdbf
000007d0: 4134 7098 2a0c c73f 0a3a bdc3 7284 ddbf
000007e0: c52a adc7 4765 c3bf 0158 50d5 e61f cd3f
000007f0: fdb7 677e 1455 d5bf d370 e329 2fa3 c23f
