telegbot/xo_bias.npy (npy, 4224 bytes, 1 tensors)

array f8 [512]
000000 45 bb ef 44 81 65 e1 bf db ce a0 5c 67 f8 63 3f
       -0.5436407419600547 0.0024377840791432854
000010 6c 36 c6 d6 3f 20 c8 bf cd 93 9d 4c 04 a9 d3 bf
       -0.18848417269730378 -0.3071909664343451
000020 46 96 8a 9b df e2 d1 bf e6 80 23 f0 cb b6 ec bf
       -0.2794722575148153 -0.8973140421112731
000030 be 63 c5 77 3f cb c0 bf 14 d5 af f7 10 58 c7 bf
       -0.1312026343173595 -0.18237506956180793
000040 27 19 72 e0 01 d6 d9 3f 80 d3 00 23 96 07 93 3f
       0.40368697088742284 0.018583627592494434
000050 5e 4b f9 3b e7 93 e7 bf 0e d0 1c cf a4 48 aa bf
       -0.7368045970309642 -0.051335478098195705
000060 e4 c5 15 68 ad 72 db bf 31 29 51 60 75 12 df bf
       -0.4288743511634421 -0.4855016174884837
000070 68 29 b1 46 2d ba e3 bf c7 56 8e d7 10 7b c4 3f
       -0.6164766674713009 0.16000566983409767
000080 9c 22 70 90 e0 74 c6 bf 41 24 5c 60 f7 a6 c3 bf
       -0.17544180920255747 -0.15353290753435725
000090 c4 ce 5c ea d3 0d d0 bf ab 06 80 11 e9 0e 94 bf
       -0.25084398161855526 -0.019588128750916905
0000a0 2a d6 fd 53 81 73 df 3f c1 dd 5f b0 fc b3 db bf
       0.4914248771886799 -0.432860538712216
0000b0 f8 05 c9 60 82 b6 a7 3f 0c 02 da 61 ec ed cf bf
       0.046314310373883616 -0.2494483449736581
0000c0 4e f6 18 dd c4 d4 d4 bf 6a 3a b0 ed c7 c4 d9 bf
       -0.3254863890796046 -0.4026355572868058
0000d0 25 75 7e 56 58 ae d1 bf 4b 1f 4c 5e 40 fb c9 bf
       -0.2762661785762524 -0.2029800854145328
0000e0 a6 3f 06 58 d5 2d ca bf 54 f0 b9 e8 9e cd d4 bf
       -0.20452372358385879 -0.3250500939100267
0000f0 8a c6 89 a3 d4 5b e5 bf 19 b6 dd b1 49 b1 d3 3f
       -0.6674597925286474 0.3076957928632012
000100 97 a2 84 c7 97 75 e7 bf 4e 39 21 5a 58 c6 b8 bf
       -0.7331046006048209 -0.09677650642809008
000110 c7 d5 38 8a 19 0d 5e 3f a0 f4 3f 5a 4a 6b a6 bf
       0.001834177914941436 -0.04378731109316303
000120 e8 b7 d5 24 75 0a d1 bf fe 5e a5 bf 6f 5c c7 bf
       -0.2662632808413705 -0.18250843866075422
000130 dd e9 af af ac 00 b3 bf b6 42 dc cc 38 6c eb bf
       -0.07422904290425643 -0.8569606782130765
000140 81 43 7b a2 7c 0a e5 bf 32 9b dd 81 d7 de d1 3f
       -0.6575301335779927 0.27922618562881774
000150 a4 fc 1a 3c 9c 1f c0 3f 50 37 da 8e 4b 8b d4 bf
       0.125964669559811 -0.32100190115385363
000160 9b 6e 1e e0 0a 68 c1 bf 2e 6f ba 81 c5 08 d7 3f
       -0.13598762458137945 0.35991037052893915
000170 9c b6 33 5e 9b 04 d0 3f c2 2b ac b6 6a c4 cb bf
       0.2502811832372147 -0.21693166656072377
000180 2b 31 25 d7 be 47 c3 3f bd e4 a3 db 71 04 b6 bf
       0.1506269979967184 -0.08600532162008086
000190 46 a5 24 df 11 65 a8 3f 81 4d f6 bf 29 60 cb bf
       0.0476461014644181 -0.21387216447019955
0001a0 8f 4c b6 6d 52 cd e0 3f cd a5 18 7e 0d 0e f0 bf
       0.5250637190641941 -1.0034308362613615
0001b0 84 1e 95 a7 be 4b 96 3f a9 2f 4d d7 cb 0a 83 bf
       0.02177331827013386 -0.0092979359702879
0001c0 9e 79 ad 86 a2 60 d4 bf d4 5a a3 b2 34 3b a4 bf
       -0.31839812423813807 -0.03951420479432036
0001d0 89 1e e4 03 f4 6d e1 bf b9 96 3d 1d 64 8b c1 bf
       -0.5446720195768232 -0.1370663779045367
0001e0 c8 1d c8 09 4a 3e d0 bf 09 eb 7e 34 61 05 f0 bf
       -0.25380183177227567 -1.0013134050956884
0001f0 18 70 3c 72 b7 46 cf bf 40 6e d8 29 70 9f b0 bf
       -0.24434559896406038 -0.06493283292405128
000200 ff d1 43 d6 47 79 99 bf d7 8f b1 4e 35 2b c6 bf
       -0.024876711323445374 -0.17319361059628477
000210 12 ab fc 28 20 35 c7 bf 9d 13 fa 31 38 b3 ca 3f
       -0.18130876542394297 0.20859434547687963
000220 1b eb 32 2f c2 cd d1 bf b1 68 04 8e 44 57 e9 bf
       -0.2781835041929967 -0.7919028066419483
000230 f0 49 69 00 78 97 b7 bf 0a f1 7f 2f 99 08 d3 bf
       -0.09215497980157017 -0.2973998035302122
000240 ad 45 de 2e 64 eb dc bf f0 b9 fa 94 a3 da de bf
       -0.45186714722612004 -0.48209466503877163
000250 6f 29 a8 e3 5b 4d 93 bf 13 69 d1 1d b6 8b a2 3f
       -0.01884978844649637 0.03622216333379149
000260 78 8e 14 e7 97 a9 b0 bf e2 a2 15 da 62 ae c2 bf
       -0.06508778945549831 -0.14594684265764274
000270 0f 5a 61 98 02 ce c3 3f 02 f2 a3 e5 7a ec d5 bf
       0.15472443046992665 -0.34255859781094966
000280 fb 55 3f 8a df d8 df bf 63 5d 32 bf 3b 0f b7 bf
       -0.49761188984606947 -0.0900761930264387
000290 7b 90 a1 7b 80 56 9b bf e9 7c 23 12 1a 1e a2 bf
       -0.02669716600975434 -0.035385908807933415
0002a0 e3 76 bb bd b1 a3 86 bf 5e 64 b3 3f f7 a2 df bf
       -0.011054409601850284 -0.4943216440274848
0002b0 28 26 20 cb ab 3f dd 3f 15 ae dd e4 36 97 d9 3f
       0.45701117359621657 0.39985439634503567
0002c0 4d be f1 d4 f3 48 db bf 9e c2 33 18 59 45 eb bf
       -0.4263276652845647 -0.8522153351496689
0002d0 0b a8 74 f8 4d 40 d1 bf d3 c2 13 dd 49 f7 bc 3f
       -0.2695498396229829 0.1131483235110509
0002e0 13 b9 ee 86 4c 68 bc bf 58 65 11 00 76 ca c5 3f
       -0.11096647543192643 0.1702411175090599
0002f0 bc 5d d3 93 41 ac e1 bf d0 fc 62 8f 26 fd ce bf
       -0.5522773635120113 -0.24210054398824932
000300 f9 5b 19 0a 14 60 b6 bf 86 76 97 a1 40 6f d5 bf
       -0.08740353819426606 -0.33491531162676613
000310 ac e9 2e a5 24 08 d7 bf 66 44 b2 3d e5 51 d7 bf
       -0.35987201815774017 -0.36437350297007354
000320 ca dc 9f 11 6f 59 d3 3f 4c 78 12 12 f3 13 b0 bf
       0.3023336097825903 -0.06280440512861779
000330 90 92 ad 64 eb d4 97 3f cc ee af 8c 5f 39 64 3f
       0.023273160953424965 0.002468763942941132
000340 a5 bb 1a 06 df e3 e4 3f 77 a5 bb 3c a6 ff c5 3f
       0.6528163069941583 0.17186429944494439
000350 c4 77 64 9c a7 ed cf bf c5 da b6 6c 8a 27 d3 3f
       -0.24944014679289073 0.2992883741057251
000360 1e 8e 3f 0b f0 49 ea bf 82 c1 2b c0 af 57 ac 3f
       -0.8215255946819899 0.05535649510227626
000370 f8 f5 52 ae 38 1b d1 3f bd e9 37 41 cb f1 d8 bf
       0.26728646301111736 -0.3897579323671854
000380 10 33 be 1d c5 84 cf bf 93 f3 38 e0 26 c4 e7 bf
       -0.24623931839268964 -0.7426943187089016
000390 bf 55 54 de 43 06 82 bf 53 50 0f 97 5e bb bb bf
       -0.008801012251335004 -0.10832778156265137
0003a0 d1 a6 12 9e 91 6f c3 3f 2f 2c ec 04 99 43 e1 3f
       0.15184231012727037 0.5395016761916674
0003b0 83 0f ff e6 9c cd aa bf fc 07 ec 74 98 8c d4 bf
       -0.05234995193271088 -0.32108127039111856
0003c0 f5 87 2d 24 cb ce db bf f0 6f 3d 91 06 8a c3 bf
       -0.4344966748523114 -0.15264970866962768
0003d0 4a 65 1d db 3d 03 bc bf 52 c6 85 ca 5e ee a1 bf
       -0.10942446326716496 -0.03502174589347064
0003e0 5b ea 05 19 06 d4 a6 bf 1e b5 da 55 07 23 a3 3f
       -0.04458636336763241 0.03737662241960947
0003f0 48 d2 f0 25 0e ab c5 bf 29 41 39 2c 8e 18 a2 3f
       -0.16928269245694794 0.03534359254683956
000400 ca 11 c9 e3 56 57 d0 3f 1f 95 61 9a ec e3 c3 bf
       0.2553307747332637 -0.15539319551604877
000410 dc a3 25 54 e7 c4 b4 3f 11 ad 96 ca 17 7f c4 bf
       0.08112951092120063 -0.16012856857319283
000420 ae f8 6f ab 60 4e e9 bf 9c f9 71 66 e7 46 8b 3f
       -0.7908175800692072 0.013318832219962932
000430 3d fc c8 63 51 a9 8d 3f 2d dc ea 6b 9f 29 d7 bf
       0.014483104570102262 -0.36191545046625856
000440 76 cf 78 ac b2 01 d6 bf 2d 48 7f e1 df 16 a3 bf
       -0.34385363429031857 -0.03728389384890849
000450 68 ff e4 c3 b4 fd e6 bf 75 74 0a 88 9d d4 ca bf
       -0.7184699846329581 -0.20961350576991192
000460 83 4b e8 94 bd d8 bf bf dd b6 e4 74 2b 49 ae bf
       -0.12440094838556885 -0.05915199090882848
000470 d4 2b d5 4a 18 cc d8 3f d0 7d 4a 41 09 3d b8 bf
       0.3874569636142813 -0.0946813377763569
000480 4c 12 0d 1b 10 27 e0 bf 40 2d 46 12 97 c5 ea bf
       -0.5047684219685578 -0.8366198880116045
000490 ea 6e f3 7e e0 ba ee bf 6a 20 97 b3 e7 53 e5 bf
       -0.9603121261129364 -0.6664923198341175
0004a0 79 b9 97 69 62 6f cb bf 48 60 da ba b4 25 e3 bf
       -0.2143366828526714 -0.5983527802918696
0004b0 35 cb d3 b8 34 69 d8 bf f4 0d 05 57 49 1d a0 bf
       -0.3814212613062183 -0.03147343814137207
0004c0 a2 4a 92 a8 df ff d3 bf d4 e9 a2 45 e1 11 d2 3f
       -0.3124922891812877 0.28234130669048096
0004d0 95 f0 09 d9 d1 e0 b7 bf a2 37 39 c9 87 d6 e2 bf
       -0.0932742266540479 -0.5886877946993432
0004e0 f1 14 41 c8 f4 72 e9 bf e9 47 b9 75 b4 dc bc bf
       -0.7952827368941638 -0.11274268983950687
0004f0 36 35 f2 f4 b9 36 eb bf ce bd 31 20 00 aa be 3f
       -0.8504304679969781 0.11978150163644516
000500 db 48 2d 21 30 40 d5 bf c4 f2 a1 46 6c 9e b4 bf
       -0.3320427249901862 -0.08054234241894692
000510 9b 49 67 96 04 c8 d6 3f f9 bb ab e4 ac 6c e2 bf
       0.3559581249984604 -0.5757660356738362
000520 f7 df e6 95 57 83 dd 3f 38 5e b4 72 93 b0 b6 bf
       0.4611414874921133 -0.08863183546451914
000530 6b df a2 7b ec b7 b1 bf 54 88 3a 2d ed 80 ab 3f
       -0.06921270388090554 0.05371800591571288
000540 ae d2 2c 69 53 c6 95 bf 8d 5d bc 7f 15 54 d4 bf
       -0.021264365476968798 -0.31763207887839756
000550 59 fb 10 9f 48 fc b9 3f e8 82 0e 0d c2 30 d4 bf
       0.10150579341369105 -0.31547595286433117
000560 fc ed e9 68 d6 54 d3 3f 50 c7 24 bb 07 71 c5 bf
       0.3020530724095065 -0.1675119079387124
000570 24 db 2c 01 32 23 c0 3f 0d 68 71 f3 64 08 e7 bf
       0.12607407624610645 -0.7197746996637321
000580 fd f5 67 5b ac c7 de bf 55 ed f6 ed 8a b5 b2 bf
       -0.4809370892179173 -0.07308262166673292
000590 b0 1e 5a da e3 b3 d3 bf dc a7 b3 cc 29 26 d2 bf
       -0.3078546173423815 -0.283579301742632
0005a0 fc f1 a3 4e 3b 61 d9 bf ca c0 78 8f b4 fc 87 bf
       -0.39655955009200716 -0.011712465885551988
0005b0 3c 80 3a 9f dd 00 b7 3f 13 97 15 ff e1 cc cf 3f
       0.08985695969977398 0.2484400268105494
0005c0 cc 5d d1 38 a6 ef d0 3f cf 30 36 32 11 14 b1 bf
       0.26462703274361554 -0.06671245075102948
0005d0 e4 df e9 79 c3 bb b9 bf 37 9f 49 47 6e 09 72 bf
       -0.10052129484563427 -0.004403525138151391
0005e0 3c a5 b4 27 dd ed 93 3f b3 f2 7a bd 92 bb dc bf
       0.01946206621974976 -0.4489485597985478
0005f0 0d e6 c6 82 94 86 dc bf 39 53 ef ca 96 79 b4 bf
       -0.44571411868273075 -0.07998030142273373
000600 76 d1 62 c7 aa 1d e3 bf 55 cd 45 73 4b a0 d9 bf
       -0.5973714727647763 -0.4004086137494672
000610 f9 52 98 65 03 4d e2 bf bc 2a f5 f2 67 17 a7 bf
       -0.5719010338094385 -0.04510044899742158
000620 7b 69 90 33 aa dd cc bf 5f aa ac 63 5e 3d a1 3f
       -0.22551467435625824 0.03367133108834674
000630 64 eb 13 5d c6 dc db bf f2 9d f8 42 9c 0a cb bf
       -0.43535002793912825 -0.21126130361629653
000640 a0 63 5b dc 20 1c df bf 0e a6 48 8a ed 1a db 3f
       -0.4860918189929695 0.4235185480525566
000650 26 18 ab 60 88 95 d2 3f dd a6 a1 ad fa 6a df 3f
       0.2903767532374125 0.49090449291416666
000660 ed b5 4b 68 28 48 df bf 10 01 9e 26 e4 c8 c3 bf
       -0.48877916512614555 -0.15456821332555437
000670 8a 37 5a 8f 93 23 da bf e4 1a e1 d8 31 1c dc bf
       -0.40842141150721345 -0.43922086886997946
000680 7e 9f 7e 69 eb 2e a6 bf 24 60 c2 64 7c b4 4e bf
       -0.04332671797538888 -0.0009370429411488285
000690 8d 44 9f 0e 97 45 bc 3f a3 37 6d 15 2e 54 c0 bf
       0.1104368601511558 -0.12756897016737154
0006a0 50 29 e5 a0 03 2f 9f 3f cc f8 b5 04 94 36 d8 bf
       0.030452782340298967 -0.3783311887745071
0006b0 46 bd 22 68 d9 ef b3 3f d8 63 df e8 0f 7f d1 bf
       0.07787855903983595 -0.273380258001962
0006c0 c6 5e b7 ee 44 76 a2 3f e4 25 8f 0b d1 6c b5 bf
       0.036058572902843575 -0.0836916592808375
0006d0 5f 6b d8 cd ec cc e1 bf d1 e5 12 5f 83 48 e1 bf
       -0.55626526073625 -0.5401017052565128
0006e0 c6 df 31 f0 47 ad cd bf 3f 11 b5 17 f6 0f cc 3f
       -0.23185061672461255 0.21923710019667372
0006f0 d0 c7 63 06 45 fb ca bf 44 43 52 0b 66 f4 e1 bf
       -0.21079314052582143 -0.5610838147277737
000700 19 5e 1c c8 c3 1c cd 3f cd 13 72 fc de e3 c7 bf
       0.22744033118282017 -0.18664157225080516
000710 a2 e1 1e 84 bd de 70 bf cf d0 bb ed 69 ef c4 bf
       -0.00411867170071681 -0.16355632885063762
000720 b1 c7 c7 b8 7b 89 a7 bf c7 d4 6d 7a fc 37 c9 bf
       -0.0459707892477036 -0.19702106454830057
000730 70 03 6c 19 4f 0f 8e bf c9 ff b6 2f ad d7 a0 3f
       -0.014677637065234811 0.03289548118073033
000740 ea b8 84 03 fb 88 d4 bf 2d 92 1b 4f a5 bd a2 bf
       -0.3208606275901632 -0.03660313215894848
000750 97 13 25 29 14 ff ba 3f a2 65 39 a8 bd 89 c5 3f
       0.1054546928836103 0.1682660170943509
000760 2c 09 98 94 29 6e bd bf 39 5f be 6e 4a 32 c6 3f
       -0.11496219518452183 0.17340975196270295
000770 d3 09 3e 23 53 b4 d9 bf d7 98 3a 74 97 1a c6 3f
       -0.40163114968904984 0.17268651175726887
000780 a0 3b b7 2b cd 17 b4 bf 77 84 5f 0e 3a 0a a7 bf
       -0.0784881812789835 -0.044999899153261795
000790 f9 05 a5 55 d8 fe d2 bf 22 fd 6f e5 32 1f d9 bf
       -0.29680450786335616 -0.39252922445298755
0007a0 2e 67 2b 4a a6 ef dd 3f 52 fe d9 78 2c 98 c2 bf
       0.46775204890365074 -0.14526897335962247
0007b0 4c af 0e d4 5b 87 d4 bf 25 d5 2c c5 4e 48 e2 3f
       -0.3207616396782569 0.5713266230656343
0007c0 b9 a8 02 a6 7c 6e e5 bf 9e d4 46 36 76 ae e2 bf
       -0.6697371714010593 -0.583796602257866
0007d0 0d 32 05 2f 9d 53 d8 bf fb cb f2 6f 21 58 c4 3f
       -0.3801033934767311 0.15893953291160287
0007e0 a6 2f 34 4b 48 78 72 bf 23 73 68 e3 97 5d ad 3f
       -0.004509241483230319 0.057354685315863095
0007f0 ac ee 09 4d 02 f1 ca 3f 1c 3a 94 1c 07 80 c9 bf
       0.21048001062069 -0.19921959777316622
