telegbot/xo_bias.npy (npy, 4224 bytes, 1 tensors)

array f8 [512]
0	0xbfe00459c3d5a157	-0.5005310845272487
1	0xbfb978c539ea9627	-0.09949906028722265
2	0x3f935315e96d777d	0.018871633884706796
3	0xbfd13f490c2ac8dc	-0.2694876307315448
4	0xbf82b25b4881f71f	-0.009129250669726084
5	0x3fa4c4c95010a9a8	0.040563860915728
6	0x3fca179a88c08336	0.20384532620757917
7	0x3fc761e58132ffc3	0.18267506416850496
8	0xbfafc147489651c6	-0.06202147255968131
9	0xbfc28166f4c8be8e	-0.14457404091216514
10	0xbfc2b64cdc230a0c	-0.14618836163397508
11	0xbfd45362ac7321df	-0.3175894435958337
12	0xbf63af6c2fda725a	-0.0024029839540403
13	0x3fa963cd3d5c3c7b	0.04958955167796205
14	0xbfc4dfcb50f6193a	-0.16307965710820743
15	0x3fae31affe31b820	0.05897283533055053
16	0xbfb6d43a9ae551b4	-0.08917585641513065
17	0xbfa411f301f4891e	-0.039199441898988704
18	0x3f87eba7af3ed70c	0.011679945025985038
19	0xbfc1a14588dddcdd	-0.13773411925260506
20	0x3fe1354e4f356657	0.5377570673983411
21	0xbfd28f6552efc1ac	-0.29000218486091955
22	0xbf638b4e898b6cce	-0.002385762589580765
23	0x3faf5e04f6b49383	0.06126418601551278
24	0xbfd622f0f770c2e3	-0.34588264621838344
25	0xbfd14a69b5850654	-0.2701668045666328
26	0xbfae17eae78e3466	-0.058776226774264015
27	0xbfc460f527f99673	-0.15920891239072751
28	0x3fbc4bb213d62416	0.11053002342499982
29	0xbfa801b4b7eba3ca	-0.046888015223721505
30	0xbfd50d417c8f80bc	-0.32893407024495125
31	0x3fb5082c177f65ea	0.08215594838784282
32	0xbfe243cdfbe47a46	-0.5707769317412577
33	0x3fd89c36710e5fce	0.3845344642700156
34	0xbfd206e93de46013	-0.2816718201079322
35	0x3f8e1a90c2adf6f3	0.014699107113979681
36	0x3fc5ba7f02e1fd21	0.16975391045341673
37	0x3fb61497a8c76723	0.08625171537951508
38	0x3faa228f9cccf4c2	0.05104492940015738
39	0xbfe855b1609f4a04	-0.7604605567124172
40	0xbfd5d0a237de5c02	-0.34085898834149486
41	0x3fdbcd92aa3e2801	0.4344221746947597
42	0xbf88b41036f97d0c	-0.0120621935631662
43	0xbfd390fadb72cd27	-0.3057238715220642
44	0x3fb65a6133cec80f	0.0873165847285977
45	0x3fba882bcd1c2fb1	0.10364030606814258
46	0xbfd03987964eabaa	-0.25351133039901674
47	0xbfc16dbc7e57cd39	-0.13616138619509302
48	0x3fcf66720a0e7b0f	0.2453138875107119
49	0xbfd6513f1101b114	-0.3487088838653716
50	0xbfc160a9222e4be2	-0.13576234978663054
51	0xbfc69609cd8c84b3	-0.17645380531852126
52	0xbfb3b3b974aca872	-0.07696112726685714
53	0xbfd64bd334644ca2	-0.3483779918326012
54	0xbfcc9de57008bbb9	-0.22356861086288207
55	0x3fd373d20f41e135	0.30394412507986895
56	0xbfe0ba6d270da063	-0.5227571261175509
57	0x3fb4ce78ad524e58	0.0812755034588063
58	0xbfd3c810e49b4a8c	-0.3090860588537587
59	0xbfbee7ea7c5db405	-0.12072625671653732
60	0xbf8a5f241552353d	-0.01287677946154508
61	0xbfe0c10198629623	-0.5235603309890319
62	0x3fb8c37fb5bb52a5	0.0967330759697896
63	0xbfc2edbd27ea9c1e	-0.1478802151588931
64	0x3fe0a35e2d959dbb	0.5199423685380035
65	0x3fd44ca2e1716f27	0.3171775056450649
66	0x3fc1d43035f82761	0.13928797373983584
67	0x3f77a624bbb647fa	0.005773681153543814
68	0xbfd29e7890859383	-0.2909222995133904
69	0xbfc3340570e6c1f2	-0.15002506268275756
70	0xbfabf1062347fa1d	-0.05457324200323319
71	0xbfe5ba8378bf0e2c	-0.6790177687002532
72	0x3fbdd4a89f9d34d2	0.11652616402462293
73	0xbfc84fc8b1c6cdc2	-0.1899348133134549
74	0x3fc4649670389c4b	0.15931969146297073
75	0xbfcea5e282b27347	-0.23943740255063004
76	0xbfd361b6b56bee17	-0.3028389712996797
77	0x3fba34b1cd571ec9	0.1023665548628926
78	0xbfadf0a565d1e936	-0.058476608924097936
79	0xbfd26b177dfa0005	-0.28778636267088614
80	0xbfae4b2a0b99807b	-0.059167207637757145
81	0xbfc7f1d10c21ef4f	-0.1870671567193036
82	0xbfb26644f21bd1a7	-0.07187300597053668
83	0x3fa8f6fd9c89c520	0.04875938926569234
84	0x3fb665a6d9caf660	0.08748858277518812
85	0xbfbd51c63543df4f	-0.11452902603548164
86	0x3fda4d433fc6534f	0.4109657404708757
87	0x3fd7a0840fba7fc2	0.36917211090075963
88	0xbfa2760ed72556ed	-0.036056960833475184
89	0xbfdea9af263aaab4	-0.4791067002612792
90	0xbfe2d88af9c31668	-0.5889334562459227
91	0x3fc4300916b7aa1d	0.15771592721223807
92	0x3fc5804c88990f82	0.1679778735143565
93	0x3fd16df0408c2bef	0.2723351126048205
94	0x3fc54db2a1997659	0.16643364801977859
95	0xbfc8ada05ab088a7	-0.1927986567325821
96	0xbfd05782bc15d5d3	-0.2553412281771134
97	0xbfd9a56902333066	-0.4007208367809255
98	0xbf718a444036b1e6	-0.0042822519348359785
99	0xbfd3ed0555b14995	-0.31134160393153226
100	0x3fa2ae79db1bdfc3	0.03648739623707755
101	0x3fd6eefa2d2bd1bc	0.35833601390120484
102	0x3fb701f526043668	0.0898736207784282
103	0x3fa8aef0ab6d0b0c	0.048209687162417664
104	0x3fb4cf169adf3b87	0.08128491669707048
105	0x3fd3c2fe579b005d	0.30877646022054767
106	0xbfbee11a6965a8b9	-0.12062230179950263
107	0xbfd230aa71445465	-0.2842203241464801
108	0xbfd5c34f40d99722	-0.3400457509327329
109	0xbfc02863bf891d79	-0.12623259403538237
110	0x3fc856bd31bdccf8	0.19014706543712356
111	0xbfb4a64000a67d87	-0.08066177383306271
112	0xbfc6f366f2bd5b6d	-0.17930304386637932
113	0xbfe1b903474df6a5	-0.553834571139039
114	0xbfcb7e6b9284e74a	-0.2147955384660299
115	0xbfbf8756dd11ba30	-0.12315886399458331
116	0x3fc67824423b2455	0.17554143175064732
117	0x3fdc7aa3e0e7a3a5	0.4449853607498489
118	0x3fc3716050188afb	0.15189746771746812
119	0xbfd35aacd8409feb	-0.3024093734588848
120	0xbfd68d075d23f200	-0.35235771270507144
121	0xbfc17ef8374d73a6	-0.1366873044998133
122	0xbfc7e3e5a5234628	-0.18664236605995765
123	0x3fd3307bc44fa4c4	0.2998341958141959
124	0x3f9f57884427442b	0.0306073466870808
125	0x3fda20a58cbb70ae	0.4082425951326155
126	0xbfc2c6e74fe192e8	-0.14669505501219438
127	0x3fb8c1b7a016ce83	0.09670589121270194
128	0x3fb00fc2f44c7106	0.06274050201722411
129	0xbfb6c21df0867468	-0.08889948961446381
130	0xbfa1b23e0a25b39a	-0.034563006151848444
131	0x3f54195856e0a6dc	0.0012267458619227766
132	0xbfd350f0ce42b436	-0.3018152250541023
133	0x3fc63a02825ccf28	0.1736453186546154
134	0xbfc5b0733450a0af	-0.16944732717934616
135	0xbfd3628092f1ef0c	-0.30288709974387085
136	0xbfd37ca9e771f840	-0.30448386766500235
137	0xbfb4bd0a1e763c75	-0.08100951427171472
138	0xbfe38a2d8ea5a131	-0.6106174264978447
139	0x3fc5f323c041ddc7	0.17148253333628657
140	0x3facabbf2d762363	0.05599782400083233
141	0x3fbe15c9a4fa3cf1	0.1175199535157281
142	0x3fc1f735c06bdef1	0.14035674949240431
143	0x3fdd5d28f77aecb7	0.4588110367582873
144	0xbfd695379cb94b9b	-0.3528574972635227
145	0xbfdf13af1426cba6	-0.4855764099876815
146	0xbfd520314dc21bb0	-0.3300898799283756
147	0xbfd1e384e08c57c2	-0.27951166084801227
148	0xbfe3573a02402ee6	-0.6043977779349603
149	0xbfd0917f80a88aa7	-0.25888049663823626
150	0xbfd24ac40779c030	-0.2858133385661885
151	0x3fdb47226b2d9488	0.42621670214277474
152	0xbfb6a2759673c12f	-0.08841643260143849
153	0x3fd18f4d13cab402	0.2743714040068995
154	0x3fcd0276e04a1a83	0.22663770629533894
155	0xbfdbe7145dd58378	-0.43597897685508924
156	0xbfc5ab8c39e3d274	-0.16929772211701144
157	0xbfba4fcf3305d673	-0.10278029437707818
158	0xbfbd540a11790cb7	-0.11456358839591273
159	0x3fbe62a68bf9fea1	0.11869278828998599
160	0xbfe27bb1ceb236c4	-0.5775994336160797
161	0x3fc116b25086e348	0.13350514347055253
162	0x3fcf8047fc6ce689	0.2461023314042914
163	0xbfe1af8f1650de6d	-0.5526805339677147
164	0x3fd9011e30f1c17a	0.390693233296609
165	0xbfd4bfd35593326a	-0.3242081008618586
166	0xbf366c9503cac3b6	-0.0003421653562254949
167	0xbfb445b32e720e42	-0.07918853649066995
168	0x3fcb89674a67a0dc	0.21513072140738287
169	0xbfc7cde350f35b31	-0.1859707017199184
170	0xbf85a7c236ac6f92	-0.010573880475526019
171	0xbfb122eebb99e539	-0.06693927841287896
172	0x3fb5496918dbff2b	0.08315140587728524
173	0xbfa0faadab5612b5	-0.033162524380747106
174	0x3fc51351c074fa0d	0.16465207955657526
175	0xbfd79d1078dab9ef	-0.36896144678294623
176	0xbfc83836ad2a81c5	-0.18921550231335807
177	0x3fb320259f8aebb8	0.07470927376827674
178	0xbfbd709bfb8d7cee	-0.11499953166411434
179	0xbf94201a6d61cacc	-0.019653714109561446
180	0x3fb1651b9aed056c	0.06794903309221006
181	0x3fc6ac6282168be8	0.1771357665248552
182	0x3fc5c5c7d9c02004	0.1700982869372184
183	0x3fba7b71e25438f0	0.10344611907587242
184	0x3fc96b79ab73aabf	0.19859238502188778
185	0x3fc5cf7835687fc6	0.1703939686567521
186	0x3fa35666a3f46367	0.03776856185340343
187	0xbfafeaba4bd7f9e9	-0.06233770538164036
188	0xbfa9f63649ca51bc	-0.05070657397041908
189	0xbfd93c280bb91b70	-0.3942966570361284
190	0xbfac45751d9e4880	-0.05521741854239881
191	0xbfb828476a15e38c	-0.09436460819223508
192	0xbfdf3d528fd89857	-0.4881178288218328
193	0xbfd0754939f661f3	-0.2571585718192459
194	0x3f9f689a97d3cf0f	0.0306724696319654
195	0xbf9253ac5af70e20	-0.017897313167635542
196	0xbfc99be10f7cc663	-0.20006955391140754
197	0x3fd327bebc12adc3	0.29930084578037625
198	0xbfccb729822776f6	-0.2243396649854998
199	0x3fbeea342341cf44	0.12076116429107936
200	0xbfd430cf13872d6a	-0.31547905833277545
201	0xbfbd730b83cfa1bd	-0.11503669708293436
202	0x3f91f32c11e7ed33	0.017529190628903634
203	0x3fd277ad4e0d2451	0.2885545026989052
204	0x3fc25f88ca1cf61f	0.14354047650151444
205	0x3fa4b4a95cf33dbc	0.0404408384289314
206	0xbfd1b7c787d9ce71	-0.2768420054119139
207	0x3fab3c4af7f71f29	0.05319437291069413
208	0xbf9e1cf0a5dbb08c	-0.029407272456339714
209	0x3fdb43244f682dc6	0.4259730124910813
210	0xbfd5a94d1a48a878	-0.3384583241155563
211	0xbfd43ab42caa4332	-0.31608299600434286
212	0x3fc6d05232a33a5e	0.17823245499171753
213	0x3fca821dcca8f741	0.20709583752789665
214	0x3fca8c812ca06737	0.20741285971672038
215	0xbfcd61dc8746521c	-0.22954899411401264
216	0x3fa756a5cb8c9878	0.04558294400912727
217	0xbfc0a426f1137051	-0.13000952502523203
218	0xbfc6cb10e7489407	-0.17807208340778422
219	0xbfd0fbb85d5d98f8	-0.26536378019081
220	0xbfd0ff02ec710169	-0.26556466188414746
221	0x3fc089368210d3a7	0.1291874060713358
222	0xbfda6ff4c51c5040	-0.4130832600506018
223	0xbfde264426d0ebcb	-0.47108558455118715
224	0x3fc07f2531ce0767	0.12888016635775587
225	0xbfe4c79ef54688e0	-0.6493677893197649
226	0x3f9d69dee4e2ba3d	0.02872417709357421
227	0xbfc7b08c438dc8e8	-0.1850753145077484
228	0x3f75d4d3f436af96	0.005329921670106949
229	0xbfb73ad4ef8e8ace	-0.0907414517264826
230	0xbfc1ff7206604d5d	-0.1406080752500242
231	0xbfc3f51b4f257726	-0.15591756214683378
232	0xbfb6486600a2101b	-0.08704221263366245
233	0x3fc3c5510718dc56	0.15445912214792895
234	0x3fd7208036801d11	0.3613586933356184
235	0x3fcf881c1241be1c	0.2463412369865957
236	0x3fc53ca5375c053f	0.16591324999903098
237	0xbfb128c3ff7dd628	-0.067028283954493
238	0xbf8d54b568c7d118	-0.014321725139759198
239	0x3fa2a3f309618b6e	0.036407084365030026
240	0x3fdce60cb04e5e9e	0.4515411111583293
241	0x3fd1051ea31a3abb	0.26593748023962477
242	0xbfe5440ffccc4d7a	-0.664558404680448
243	0xbfe126e25a313f8b	-0.5359966050691453
244	0x3fcc1bd993a15d66	0.21959991177093768
245	0x3fcba2b7028c4f40	0.215903164142782
246	0xbfb1d402885e1eaf	-0.0696412642411086
247	0x3fc38704f31066e2	0.15255796306956088
248	0xbfdd47e7e59e5284	-0.4575137846343653
249	0xbfb3bad5c2ea5781	-0.07706962593723966
250	0xbfcebe4232f23547	-0.2401812313804987
251	0x3fd181e1574f964c	0.273552260651148
252	0x3fd65407cd5b2b1a	0.3488788133078501
253	0xbfd2a75e8f844b13	-0.2914654161005938
254	0xbfb0d35245b4b195	-0.06572450830271344
255	0x3fb6cf28bd740549	0.08909849763224033
